Models/Svetlana/MyoFuse.pth (torch, 287188 bytes, 63 tensors)

weight f4 [16, 4, 5, 5]
00000000: dcc2 c93d 99bd 57bc 4951 513d 0ad2 0f3d
00000010: 03f9 913d 1338 023e c06b 963d 8c6f 2d3d
00000020: d96d b6bd d9b0 893d c6a0 6b3d 74c7 043d
00000030: 9612 6ebd 96a2 b8bb fd7b b5bd ee25 a13c
00000040: 2c34 37bd 13b0 673d c48b dbbd a5a6 b7bd
00000050: 5cef b03b 4130 823d 8e80 afbd d23d d5bd
00000060: eb35 0a3d 8211 05bd 1d60 94bd 873e 5ebd
00000070: 4cc9 2c3d f9f4 b5bd 8508 fa3d e1e8 77bc
00000080: f918 ba3d 887c 9bbc b7db 6abd 51a3 4abd
00000090: c932 9e3b e654 93bd 3f54 883d 7c3f 51bd
000000a0: 35cf cc3d 55ec c93d b8eb 9a3d b591 6abd
000000b0: 90ea 53bc 23a1 523c de8d b63d 2749 8bbd
000000c0: 6917 ddbd 439a 8abc e29d 41bb 7a73 d63d
000000d0: 71c9 84bd 3673 fabc 115f 113d 442f 12bd
000000e0: 9e2b 923d 8084 8e3d a540 cbbd a34b 0cbd
000000f0: d2f9 b83d d5c2 8bbd 9829 b03d 1f46 b83c
00000100: 1fa0 6b3d 6e31 dc3c 654a a6bd 78af 213c
00000110: 5f77 383b fd93 f7bd 0c74 253d 6228 c93d
00000120: 9d5b c3bd e5e3 a2bd cddb 25bd dc48 7d3d
00000130: 59dd 71bd fcb3 603a 62ee f9bb ea77 d1bd
00000140: 3dc1 3abd e810 f2bc de9e a63d 5bed 083d
00000150: 1b20 98bd 936a 67b9 ca27 37bc 649a 183b
00000160: 1d59 b9bd d7d1 c73c b537 a4bd 77f7 953c
00000170: ba57 17bd dd1e febd b2bc b7bd 8374 c33d
00000180: a3c0 6bbb 48eb a4bd 20b8 03b9 9f4a 33bd
00000190: 41f9 8e3d e115 9cbc 118f 493d 88dc a9bd
000001a0: c775 073c dab3 80bd 3932 4ebd 6e53 9b3c
000001b0: 64f9 673d c643 0c3d e649 be3c 5826 b83d
000001c0: cdfd 5cbd 4aad 903c 4d97 b1bc 30e6 21bc
000001d0: 4933 ce3c 87f0 a43c 3485 42bc 1064 13bd
000001e0: f099 3abd 3327 a13c 6658 9abd dab0 9aba
000001f0: 0e4b 4cbd b0f6 8bbd 0aa9 b03d 4b26 c0bd
00000200: dce8 6e3d 0504 96bc ed52 343d 8c05 8cbc
00000210: a0d6 e4bd 6f63 5cbd 4f42 29bd e698 a8bc
00000220: 4db9 05bc 66a9 df3c bfde d7bd 9a37 5dbc
00000230: 1b58 95bd 8d7d 5d3d 3f8a 893c 50ce d0bd
00000240: 4294 943b 026a 05bd ecfa 92bd 3cd3 893d
00000250: 76c2 a3bd fe51 73bd 021e bb3d 4bde bebb
00000260: 2de5 c63c 2009 b23d 4d58 9c3d e83a 4a3d
00000270: 75ea 95bd 73ed 84bc 8b47 0c3d c78f 00be
00000280: 2b2d 56bd dde5 b3bc 96bc aebd 12d8 40bb
00000290: 41ae cdbc 2307 98bd 0902 39bd f069 6dbd
000002a0: 9a8b 8abd 6580 dfbc 3b83 f2bc 1550 9bbd
000002b0: 059a 693d 6f25 99bd 230d 0d3d 2859 b03c
000002c0: c0fb 4d3c e786 153d d479 e03b 0ed7 a03d
000002d0: 9d30 9bbd 9829 9bbd 798c e03b dddc 14bd
000002e0: f4a8 c23a c3c1 cb3b cb49 48bd 2665 7d3c
000002f0: d5d7 433d cdbd fa3d 6de0 f53d 247f b13c
00000300: a711 863d a34b a23d 9c7d 423d 0bdf 833b
00000310: b910 65bc 504f 533d 6bc8 c7bc c43b 7fb9
00000320: 3017 d83d 891d 8bba 240e ea3d 2ece 173c
00000330: f601 43bc a29e bbbc b584 ecbd 8a2e c0bd
00000340: 9775 acbd c3f1 943d 0f4a 02bd 15d5 84bd
00000350: cd2e 8f3d b991 78bb c851 313d 5258 67bd
00000360: f424 08bd 4626 03be 6d74 93bc d55a 31bd
00000370: 6080 a5bc 1951 c2bb a53c 1bbc ddd9 a6bd
00000380: 0b81 2dbd 7fb1 5bbd 5866 86bd bba4 89bd
00000390: 127d 89bc 8496 b73d 6cb5 4e3d 5fa8 debc
000003a0: 648d 32bc 8aee e23b eb4f 053d 0ca8 67bd
000003b0: f309 e3bd 476b 60bd 6f6f 86bd d80e e7bc
000003c0: 7d27 d6bd d7db 04bb 63b4 523d 8ae9 943d
000003d0: 5f09 0cbd 618b aa3d 48dc b7bd dbea 9bbd
000003e0: 596e 273d c0e0 8c3d 824b 67bd 1a1b 1d3d
000003f0: b4e4 77bd c1a4 e43a 6f33 d4bc c4ce fcbc
0.098516196 -0.013167762 0.05110291 0.03511242 0.07127573 0.12716703 0.073447704 0.042342708
-0.089076705 0.06723184 0.057526372 0.032416776 -0.058123194 -0.005634616 -0.088615395 0.019671407
-0.04472749 0.0565644 -0.107200176 -0.08967332 0.0053996276 0.0635686 -0.08569442 -0.10412182
0.033742826 -0.0324874 -0.07244895 -0.05425885 0.04218416 -0.088846155 0.12208656 -0.015131206
0.090867944 -0.01898028 -0.057338443 -0.049472157 0.0048278314 -0.071939275 0.06656694 -0.051085934
0.10000459 0.0985953 0.07564491 -0.057267863 -0.012934342 0.012855801 0.08913778 -0.06801062
-0.10795481 -0.01691926 -0.0029543568 0.10471244 -0.064837344 -0.030572515 0.035491053 -0.035689607
0.071372256 0.06958866 -0.09924439 -0.03425182 0.090320244 -0.06824271 0.086016834 0.022494374
0.05752575 0.026879039 -0.081196584 0.009868495 0.0028147323 -0.120887734 0.040393874 0.098221555
-0.09538958 -0.07953624 -0.04049282 0.061837062 -0.059048984 0.00085717416 -0.0076272944 -0.1022795
-0.045594443 -0.029549077 0.0813577 0.033429485 -0.07427999 -0.00022069579 -0.01117892 0.0023285383
-0.090502 0.024392052 -0.08018438 0.018306477 -0.036948897 -0.124082305 -0.08971538 0.09543707
-0.0035972975 -0.08052689 -0.00012561725 -0.043772336 0.06981135 -0.019053401 0.049208704 -0.08294016
0.008267826 -0.06284304 -0.050340865 0.01896068 0.05663432 0.03424432 0.023228597 0.089916885
-0.05395298 0.017660756 -0.021678591 -0.009881541 0.025170939 0.020134224 -0.011872578 -0.0359841
-0.045556962 0.019672012 -0.07536392 -0.0011801973 -0.049876265 -0.06834161 0.08625992 -0.09382304
0.05832754 -0.018312464 0.044024397 -0.017092489 -0.11173749 -0.053805765 -0.041323002 -0.02058072
-0.008161855 0.027302455 -0.10540532 -0.013502026 -0.072921954 0.054074813 0.016789554 -0.10195601
0.0045342753 -0.0325718 -0.07176766 0.06729743 -0.07996075 -0.059404366 0.09136583 -0.005824839
0.024279201 0.08693147 0.076340295 0.049372584 -0.0732011 -0.016226506 0.034247916 -0.12554847
-0.05228917 -0.021960193 -0.08532064 -0.0029425663 -0.025107505 -0.07423236 -0.045167957 -0.057962358
-0.06764908 -0.027282903 -0.029603591 -0.07583634 0.05703165 -0.07477843 0.034436356 0.021526888
0.012572229 0.036505606 0.0068504605 0.078535184 -0.075776316 -0.07576293 0.006852683 -0.036343444
0.0014851377 0.0062181666 -0.0488985 0.01546601 0.047813255 0.12243233 0.120056964 0.02166707
0.06546336 0.07924583 0.04748307 0.0040243915 -0.013981038 0.05158931 -0.024387559 -0.0002434096
0.10551298 -0.001061366 0.11428478 0.009265466 -0.011902323 -0.02290279 -0.11548749 -0.093838766
-0.08420866 0.07272675 -0.03180891 -0.06485955 0.069913484 -0.0037928654 0.043290883 -0.056480713
-0.033238366 -0.12807569 -0.017999852 -0.043299515 -0.020202816 -0.0059300778 -0.009474908 -0.08147023
-0.042359393 -0.05363607 -0.06562489 -0.06720873 -0.016783271 0.089642555 0.050465986 -0.027179895
-0.010897968 0.0069254087 0.03254692 -0.056556746 -0.11085882 -0.054789808 -0.06564223 -0.02820532
-0.104567505 -0.0020272636 0.05144156 0.072711065 -0.034188624 0.08327366 -0.08977562 -0.076131545
0.04087672 0.06878805 -0.056468494 0.038355924 -0.060520843 0.001744412 -0.025903432 -0.030860312

bias f4 [16]
00000000: f46f ba3d 0f91 10bb 846f 0abc ebcc 72bc
00000010: a682 7f3d 4b85 4dbe 330d 053d 245e b73c
00000020: 18bc 523d 1281 6f3c 0e8b dbbd 0c3d f9bb
00000030: 05f9 0e3d 2a4c 5fbd 9dc4 e93d 1513 943c
0.091033846 -0.0022059118 -0.008449439 -0.014819364 0.062380455 -0.20070378 0.03248329 0.022383757
0.05144891 0.014618175 -0.10719882 -0.0076061543 0.034905452 -0.054515995 0.11414454 0.018075505

weight f4 [16]
00000000: 8a4a 743f 2d23 763f 7336 743f 9bc5 713f
00000010: 75df 7f3f d52a 873f 674f 7c3f 1b09 9e3f
00000020: 4284 823f 8f3c 6a3f 03a2 713f ddf2 733f
00000030: 9ee3 783f 1fb0 6f3f c474 6d3f cd11 703f
0.9542624 0.96147424 0.9539558 0.94442147 0.99950343 1.0559946 0.9855866 1.2346529
1.0196612 0.91498655 0.94387835 0.95292455 0.97222316 0.93628114 0.92756295 0.9377716

bias f4 [16]
00000000: 52c7 a23d a4c9 923d 7672 a9bd 6e8c 6b3d
00000010: 05fd 913d 23e1 0f3e cd14 2bbd 731b ef3d
00000020: c084 b4bd c4b1 f13c be45 50bc 08d7 fdbc
00000030: 3e75 b73d 7ef9 583e d894 22bd 5d2b 90bd
0.079481736 0.07167366 -0.08273785 0.05750697 0.07128338 0.14050727 -0.041767884 0.116751574
-0.088143826 0.02950371 -0.01271194 -0.030986324 0.08957909 0.21188924 -0.03969273 -0.07039521

running_mean f4 [16]
00000000: 372c d63d 901b ce3a aea1 1e39 003a 063e
00000010: cd7a cb3d 5641 283b d815 903b 9f73 1f3d
00000020: 7881 ba3c 1017 473e 1e1b 113b 92b2 5a3e
00000030: 5566 913b b827 0636 9e93 593d 2813 043b
0.10457652 0.0015724767 0.00015128285 0.13108063 0.09935532 0.002567371 0.004397135 0.038928624
0.022766814 0.19442391 0.0022141407 0.21357182 0.0044372478 1.9990675e-06 0.053119294 0.002015302

running_var f4 [16]
00000000: baf6 0a3b 39bc e439 a101 d237 ed58 683c
00000010: ed95 033b 1550 253a 73ea 9c39 edaa 3f3b
00000020: 0618 a23c 2a8c ae3c 5bd8 1e3a e9c5 ff3c
00000030: 0e9b 1439 cb8b 2d34 1cf2 5c3b 246c 1038
0.002120419 0.00043627786 2.503471e-05 0.014181358 0.0020078376 0.00063061836 0.00029929317 0.0029246167
0.019786846 0.02130707 0.0006059461 0.0312223 0.00014172142 1.6162737e-07 0.0033713644 3.443299e-05

weight f4 [16, 16, 5, 5]
00000000: a83a 1e3c 68a9 2c3c c364 ad3c 9744 dfbc
00000010: b7fb 4cbd 8110 bf3c 8cd9 4cbd 8651 313a
00000020: 3601 a6bc 1b48 27bd 5c94 68bc 65e3 a8bd
00000030: 5371 493c 5564 d1bc 31c4 d9bc 58bf 3ebc
00000040: 56f5 27bd 6a8f a43c 8edc e33b 429f fdbc
00000050: d617 57bd 974c 06bd 6190 8f3c dfb1 17bd
00000060: ab36 21bd 39bd 07bd 2e50 69bd f9e9 b23c
00000070: 26f4 67bd 2818 9ebd 3295 943b d33e 123d
00000080: a0b8 83bc c83a 4cbd b3cc 68bd ac88 103d
00000090: 91d1 8f3d 2a76 7a3d 2c09 f83c 49b3 03bc
000000a0: 5bff 053c 1387 f3bc cc84 ecbc cd07 2dbd
000000b0: f24f 0ebc aef0 c7bc 99ce 8dbd c0ba 7b3c
000000c0: b383 52bd 802d 2cbc efd9 d13c 6082 0e3d
000000d0: e654 263d bb23 25bc ea75 703c 45a8 5dbc
000000e0: 84a4 943c 82fe 20bd 5767 10bc 1434 9fbc
000000f0: b98a d23c c233 913c fc3b 8b3c 4fc5 963d
00000100: 13d7 13bd 9d43 2d3c 7386 8dbc 7f2d 803d
00000110: 09ec 7dbc b007 253d bc88 673d daf7 cf3d
00000120: 6802 8d3c 8541 703d 4ae2 5f3d 5386 88bc
00000130: 4fb4 dbbc c5b0 3b3d 5a8f 69bc 195f b5bc
00000140: 0a69 443d faef 063d 69a2 00bc e920 313d
00000150: 0c53 eabc d328 f5bc 9e31 cfba 6f3a f8bc
00000160: d90f edbc 459a 1f3d f8a9 08bc b7bb 5dbc
00000170: 0e8d babc e9ee 13bc ee08 03bc 1438 043d
00000180: b662 fe3b b1b6 a5bd 1d12 6bbd d768 0cbb
00000190: db30 29bd aed4 88bd 86a5 f3bb 14d6 85bd
000001a0: c047 c5bb e35d 643c f81e 3a3d 4e44 6dbb
000001b0: 1f50 8cbd 675e 143c 5551 533c c192 65bd
000001c0: bfc5 32bc a5fa 3abd d101 30bd 2523 be3c
000001d0: 42cb 92bd adf9 91bd 8d7c eb3b 375f ec3c
000001e0: 522f 933b 6703 85bc 99b3 643d 84cc 303d
000001f0: cec4 d8bb eb9a 03bc 2121 bdbb 9b84 a33c
00000200: aebd 303d 381f e3bd 5fd4 f3bc ef1d 513d
00000210: 119b 38bb ebef 5dbd dff3 27bd 97fc 143d
00000220: 37e2 313d 7663 573d 4024 b1bc 6192 95bd
00000230: 6dbd 2dbd 7c92 04bd 3a77 d8bb e893 013d
00000240: bdf4 5fbd aba4 92bd 212c e1bc 25fd 74bd
00000250: 8226 8f3c 69b7 d7bd cf42 8dbd 1a68 b0bc
00000260: 1041 933c 0aa8 f6ba 6f4e aebc 2f06 7e3d
00000270: 1abc 263d 6ae3 ed3c 3572 d03b ca06 2a3c
00000280: 81cd bf3c bfb4 433d b18a a23d 8d75 9b3c
00000290: 1711 1b3d 3e16 2c3c 3f3e 1c3d 80d2 083c
000002a0: 35cf 15bc fabe 8bbc 8244 17bd 2aaf 323d
000002b0: d239 d0ba 2fe9 3f3c dc1a ca3a 794f 673d
000002c0: 8e55 2e3b 5c2b 103d 7434 793c 057f d9bc
000002d0: 08ee d03c 6750 a43d 2b6a 1f3d 069c bf3c
000002e0: 5998 cdbb 3e68 603c 3cf2 87ba d585 613d
000002f0: 259a ac3c b7f5 73bd a70b 15bd deea cfbc
00000300: f47c 19bd 8be1 17be ac91 8bbd 50b8 aabd
00000310: a292 c7bd ef8f 1dbe 0a92 96bd 3cf2 75bd
00000320: 0d43 393c 19dd 8ebc cbe8 803d 8e7a 503d
00000330: dc47 30bc 6110 3d3d 51b4 123c 78f2 af3d
00000340: ea5a 4d3c 3fa6 03bd b7f5 253d 98ad b53d
00000350: 7e0b 263d 3b88 c33c 1221 94bd 9161 433d
00000360: 32dd 21ba 4d2f a13c 550d b7bb a85c 58bd
00000370: 02b9 a03c fe29 bebc c695 3d3d ddc1 3ebb
00000380: ac71 32bd 0bbd e4bc 0e46 6dbd 7bbe 2ebd
00000390: 2b3f 8e3d 73e3 e03c 2ad0 993c 9704 8cb9
000003a0: a3c2 313d c397 1d3d 8739 16bd 61cf 9dbc
000003b0: df9f d3bc 92a0 393c 7488 783d 1d13 72bd
000003c0: bb06 9b3c 0b1f 15bd 0c4c 113d 1a21 9f3c
000003d0: b971 62bd 805d 073d e6fe d8bc c494 c1bb
000003e0: 7029 8bbc 7b05 99bd 4341 2c3c a893 73bd
000003f0: 2209 1fbc b0fa 80bd b97a d1bd f078 35bd
0.009657539 0.0105384365 0.021166211 -0.027254386 -0.05004474 0.0233233 -0.050012156 0.0006764162
-0.02026425 -0.04084025 -0.014195528 -0.08246497 0.012295085 -0.025560537 -0.02658281 -0.0116423
-0.041005455 0.020087916 0.0069537824 -0.03095973 -0.052512966 -0.032787886 0.0175249 -0.037034865
-0.039358776 -0.03313944 -0.05696123 0.021840082 -0.056629322 -0.07719451 0.004534387 0.035704445
-0.016079247 -0.049860746 -0.05683584 0.03528659 0.070223935 0.061147846 0.030277811 -0.00803835
0.008178557 -0.029727494 -0.028871916 -0.042243768 -0.008686053 -0.024406757 -0.06924171 0.015364349
-0.05139513 -0.010508895 0.025616614 0.034792304 0.04060831 -0.01007932 0.01467655 -0.013528888
0.018144853 -0.039305218 -0.008813701 -0.019434012 0.025700914 0.017724875 0.016996376 0.073618524
-0.036093783 0.010575202 -0.017276024 0.06258678 -0.01549817 0.040290534 0.056526884 0.10154696
0.017213061 0.058656234 0.054659165 -0.016665613 -0.026819376 0.045822877 -0.014255369 -0.022140073
0.047951736 0.032943703 -0.007851222 0.043244276 -0.028604053 -0.029926693 -0.0015807634 -0.0303013
-0.02893822 0.038965482 -0.008341305 -0.013533524 -0.022772338 -0.009029129 -0.0079977345 0.032280043
0.007763232 -0.08091486 -0.05739032 -0.0021424794 -0.041306358 -0.066811904 -0.0074355034 -0.06534973
-0.006020516 0.0139384 0.04543969 -0.0036204043 -0.068512194 0.00905571 0.012897809 -0.05604816
-0.010911404 -0.04564919 -0.042970482 0.023210118 -0.071676746 -0.071277 0.0071864785 0.028853996
0.004491725 -0.016236974 0.05583534 0.04316379 -0.006615258 -0.008032541 -0.0057717715 0.019960692
0.043149643 -0.11089939 -0.029764352 0.051053938 -0.0028168599 -0.05418388 -0.041004058 0.0363737
0.043428626 0.052585088 -0.02162373 -0.0730331 -0.04241698 -0.03236626 -0.00660601 0.031635195
-0.05467676 -0.07160314 -0.027486863 -0.05981173 0.017474417 -0.105330296 -0.06897508 -0.021534014
0.01797536 -0.001881839 -0.021277634 0.062017616 0.04070673 0.029039104 0.006361271 0.010377595
0.023413422 0.047779795 0.079366095 0.018976951 0.037858095 0.01050335 0.0381453 0.008350968
-0.00914364 -0.017058838 -0.03693057 0.04362408 -0.0015886372 0.01171331 0.0015419382 0.056472275
0.0026601288 0.0351976 0.01521026 -0.026549825 0.025504127 0.08023148 0.03891961 0.023389827
-0.006274265 0.013696728 -0.0010371874 0.055059273 0.021069596 -0.059560504 -0.036388066 -0.025380548
-0.03747268 -0.14832132 -0.06814894 -0.08335936 -0.09744765 -0.15386938 -0.073520735 -0.060045466
0.01130749 -0.017439412 0.06294402 0.050898127 -0.01075932 0.0461582 0.008954124 0.08591169
0.012533883 -0.032140967 0.040517535 0.08871001 0.040538304 0.02386867 -0.0723287 0.04770047
-0.0006174623 0.019675875 -0.005586306 -0.05282274 0.019619469 -0.023213383 0.046285413 -0.002910725
-0.043565437 -0.027922174 -0.057928137 -0.042662125 0.06945642 0.027452206 0.018776018 -0.000267063
0.04339851 0.03847481 -0.036675956 -0.019263925 -0.025833068 0.011329787 0.060677007 -0.05910026
0.018924108 -0.036406558 0.035472915 0.019424964 -0.055284236 0.033048153 -0.026488733 -0.005907627
-0.016987532 -0.074717484 0.0105136065 -0.059466988 -0.009706767 -0.06297815 -0.102284856 -0.044304788

bias f4 [16]
00000000: bad2 8ebd 63b1 67bd 7c13 3a3b 4b46 88bc
00000010: dd2e dcbc 731d 5cbd c124 1bbe 245b 38bd
00000020: 8a83 63ba c6c5 bbbd 9643 29bc 2a08 00bc
00000030: 1529 2fbc 91bd 2fbe 7e5f d8bd e02a 9ebd
-0.06973787 -0.056565654 0.0028392961 -0.01663508 -0.026877815 -0.053739022 -0.15150739 -0.045008793
-0.00086789636 -0.09168582 -0.010331055 -0.007814446 -0.010690947 -0.17162158 -0.10565089 -0.077230215

weight f4 [16]
00000000: f5b8 7a3f e778 833f f9ee 793f 5b43 683f
00000010: f0a8 7e3f 31ca 6e3f ffbf 763f 3dba 823f
00000020: 16c3 703f 07cb 803f eec2 703f bc5c 7f3f
00000030: 6b17 7a3f c7b5 7b3f d6b6 7d3f cfed 763f
0.9793847 1.0271271 0.9763027 0.90727776 0.9947653 0.9327727 0.9638671 1.0213085
0.9404768 1.0061959 0.9404744 0.99750876 0.97691983 0.98324245 0.9910711 0.9645662

bias f4 [16]
00000000: ea9b 8dbd fd92 0dbe 63b0 683e 91cb 64be
00000010: 8c06 043e 2e2b c23d 9b33 323e 4fe3 353e
00000020: 3ed0 783e bf0a d03d bee4 10be 502f 5f3e
00000030: 6f46 f03c 5c38 13be d77a ca3d 8627 44be
-0.06914504 -0.13825603 0.22723536 -0.2234328 0.12893122 0.09480892 0.17402498 0.17762493
0.24298188 0.101583 -0.14149758 0.21795392 0.02933046 -0.14376968 0.09886711 -0.19155702

running_mean f4 [16]
00000000: cece ed3d 8cc5 013e d91e 113f 9da7 653e
00000010: 99d3 bc3e 22a9 f33d 6b43 e33d 85f5 563e
00000020: 74f4 d03e e813 423e e9e0 783e 2999 1d3e
00000030: f7a9 223f ed95 133d 9c2f 433e 41df 0e3e
0.116117105 0.12673014 0.56687695 0.2242722 0.36880186 0.11897494 0.11096843 0.20992096
0.40811503 0.18952906 0.24304546 0.15390457 0.63540596 0.036031652 0.1906113 0.13952352

running_var f4 [16]
00000000: 1cd5 923e 3137 623e cb99 a03f 1110 4540
00000010: b51c b23e 6309 983f 13d9 d73d 7ce2 393f
00000020: a6de d53f 9cef e13e d0c6 2540 04c3 6c3e
00000030: 8cd2 893f ec8d 823d 78e6 2c3f f73b 143f
0.28678215 0.22091366 1.2546934 3.0791056 0.34787527 1.1877865 0.105394505 0.7261121
1.6708572 0.4412812 2.5902596 0.23121268 1.0767379 0.06374726 0.6753917 0.57904

weight f4 [16, 16, 5, 5]
00000000: e1b3 f23c 24c1 003d a0ac d9bb 2034 143d
00000010: e681 223d 1e0c b83c fcae 60bc e06a a53b
00000020: aa88 263d 818b f9ba 16ea 373c 6d1a 593c
00000030: 97a5 c93c c9c6 173c b9a4 c03b b789 2abd
00000040: 7b72 3cbd 660e a83c 64ae 413d 1393 03bd
00000050: 1bae 98bd d890 82bd 2dd8 f8bc 003f d13c
00000060: 6fe9 8ebc edfa 183d 75ff b03d 234b a63d
00000070: 0945 443c dd45 2dbd 0165 843c b76c 193d
00000080: 8f2a 4d3b 9e01 49bd 2751 3dbd 35d0 a2bc
00000090: 5028 ba3c 63a7 beba ac3b e4bc f5d5 c93c
000000a0: ac94 59bd baad 7b3c 904d d0bb 8440 d03c
000000b0: 9b38 b3bc 2d38 133d c8c7 f23b e29a ea3c
000000c0: 98eb e63c 1b2c 49bd e17f 72bc a7ed 58bd
000000d0: a498 28bd beb3 6fbd 6e01 9f3c 3f85 41bd
000000e0: 1dd5 a8bd 1009 a3bd f79f 5f3c fbc2 42bc
000000f0: 5574 03bd 9ec2 89bd fdf6 28bd 5737 693c
00000100: 2e4a 413c bcb7 7bbd 3f7a a3bd ea95 2ebc
00000110: 2488 85bd d3bf 44bd c6fe 51bd 78b3 11bb
00000120: 3ca9 203b 92bd 80bc 992d a0bd 5c3c 843d
00000130: 4b7f b0ba 9828 3f3d e60e 36bd af52 023d
00000140: 309f a13c 7673 033d 90e1 503d 691d 79bc
00000150: 1215 93bc 4d9c 3e3c 74ef b6bc f189 81bc
00000160: 325f 37bd 9543 4b3d f699 f53c 03e5 9fbc
00000170: 6fc2 28bc 9f06 893c 282b aebc 2cd6 3b3d
00000180: 7868 9d3c 9089 bbbc 33dc 16bd bcc7 d93b
00000190: cb90 d33b 8036 66bd 1aa4 7cbc 4fd4 0cbd
000001a0: 82d0 0fbd ea9d 043c 213b c2bc b2dd 26bc
000001b0: 472c f73c 73b3 10bc 4c84 d3bc 4204 bdbc
000001c0: 66f6 34bc 70e0 b5bc f4da 0c3d 2fe9 b33a
000001d0: da13 4e3d d2a9 d53b 4478 123d 340a 213d
000001e0: a3b3 903c fca5 81bc acdf 09bd 2596 333d
000001f0: a832 b2bc 09f5 163c 091e 05ba b0a2 dd3c
00000200: 5f02 a63c eab2 583c e147 7c3a 5de1 ce3c
00000210: 2d91 543b 8ddf 003d 1f78 553d 9e95 223d
00000220: 4b79 81bc 661e 1d3d 5db7 54bc 9f10 ac3c
00000230: 3e32 a6bc 3aa4 bfbc f998 1e3c 5eda ba3c
00000240: c916 c73b d864 18bd c301 08bd 565c 48bd
00000250: 3f76 62bd ee30 64bc ed0e e93b 6340 fbbc
00000260: 0338 92bc 1fac b73c 76b7 86bc bda1 393d
00000270: d604 a2bc d667 3f3c d939 6abc ae24 3b3d
00000280: e4e4 643d 7df2 103d de7d d73b 19e2 34bd
00000290: 0961 383c 13ff b23c fd95 c5bc 6bfe acbc
000002a0: 0f66 37bd 48ce dcbb c7da f93c 709e 97bd
000002b0: f169 4ebd dbe6 e8b8 194e 853c b41a c8bc
000002c0: 1912 26bd 2f71 9239 7d43 b6bb 818d 293c
000002d0: c228 783d ce6f e13c fd39 463d 9704 a339
000002e0: 2153 313d d290 6c3d 8051 453a d992 88bc
000002f0: 32fa 383d d66a 3cbb d575 3b3d da56 8439
00000300: 57b1 313d e0a5 44bd ed43 cabc 6193 90bc
00000310: c41d 233b 8c66 28bd d83e 8abc 6844 3fbd
00000320: e112 3b3c 7b33 86bb 151f 66bb 1d31 70bc
00000330: 8793 073c a92c 67bc 48d8 2bbd 51bf 41bc
00000340: 1905 c93c 8542 ab3a 88df 883a d067 bcbc
00000350: 5fcd 1bbd dbf0 2abd 93c5 59bb 1799 14bd
00000360: 6f6c 19bd 3ab7 0cbd 72bf 16ba 9f2e 353c
00000370: 8e86 87bd 716e 12bd 6226 1dbd 26fd 8bbd
00000380: aaa7 52ba 56b0 58bd b845 6dbd 2302 3dbd
00000390: 780e 3dbc 99cd 66bd 3a69 06bd c11a fbbc
000003a0: a6d1 4ebd 166e c7bb 3730 4fbd 8203 08bd
000003b0: 450c 263d 0d70 f83c 9756 873b 39d0 4dbd
000003c0: 494e 0fbd 4147 f83c a006 bb3c d86d 8b3d
000003d0: c05f a63c abbd 17bd 01aa 033d 7173 46bc
000003e0: 7809 2e3d ea7a a9ba 18aa 863d 50be 8a3d
000003f0: ae35 593d 3a6c 523d 8e4d ee3c 9b2c 393c
0.029626789 0.031434193 -0.006642893 0.036182523 0.039674662 0.022466715 -0.0137135945 0.005048141
0.040657677 -0.0019038768 0.011225244 0.013250929 0.024615092 0.009263703 0.0058790115 -0.04163524
-0.046007615 0.020514678 0.047285452 -0.032122683 -0.07455083 -0.06375283 -0.030376518 0.025542736
-0.017445294 0.037348676 0.086424746 0.081198 0.01197935 -0.042302955 0.016161444 0.037457194
0.0031305884 -0.049073808 -0.04621997 -0.019874671 0.0227243 -0.0014545735 -0.027860485 0.024638155
-0.0531203 0.015361244 -0.0063569024 0.025421388 -0.021877578 0.035942245 0.0074090697 0.028638307
0.028188512 -0.049114328 -0.0148009965 -0.052961018 -0.041161194 -0.058521025 0.019409861 -0.047246214
-0.08243773 -0.07960713 0.013648978 -0.011887307 -0.032093365 -0.067265734 -0.04125117 0.014234385
0.011797471 -0.06145452 -0.07982301 -0.0106558595 -0.065201074 -0.0480345 -0.05126836 -0.0022232216
0.0024514934 -0.015715394 -0.07821197 0.06456825 -0.0013465671 0.046669573 -0.044447802 0.031817134
0.019729227 0.032092534 0.050996363 -0.015204766 -0.017954383 0.011633945 -0.022330977 -0.015812846
-0.04476852 0.049624998 0.02998064 -0.019518381 -0.010300263 0.01672679 -0.021260813 0.045858547
0.019214854 -0.022892743 -0.036831092 0.0066461246 0.0064564697 -0.05620432 -0.015419984 -0.03438216
-0.035110958 0.00809429 -0.023709835 -0.010184692 0.03017248 -0.0088318465 -0.02581992 -0.02307332
-0.011045074 -0.022201747 0.034388497 0.001372611 0.0503119 0.0065204883 0.035759225 0.03931637
0.017663782 -0.015826218 -0.033660576 0.04384436 -0.02175267 0.009213694 -0.0005078023 0.027055115
0.020264803 0.01322625 0.0009623748 0.025253946 0.0032435164 0.031463195 0.05211651 0.039693467
-0.015804907 0.03835907 -0.01298317 0.02100402 -0.02028763 -0.023393739 0.009680026 0.022809204
0.0060757142 -0.037205547 -0.033204805 -0.048916183 -0.05528855 -0.013927681 0.007112375 -0.03067035
-0.017848974 0.02242094 -0.016444903 0.04532026 -0.019777697 0.011682471 -0.0142960185 0.045689277
0.05588235 0.035387505 0.006576284 -0.044160936 0.011253604 0.021850144 -0.024119372 -0.02111741
-0.044775065 -0.006738458 0.030499829 -0.074032664 -0.050394002 -0.00011105622 0.016272591 -0.024426796
-0.040544603 0.00027931618 -0.0055622444 0.010348679 0.060585745 0.027519133 0.048395146 0.00031093202
0.04329217 0.0577553 0.0007527098 -0.016671585 0.04516048 -0.0028750203 0.04576667 0.0002524171
0.043382015 -0.048009753 -0.024690593 -0.0176484 0.0024889568 -0.04111342 -0.01687567 -0.046696097
0.011418075 -0.0040954924 -0.0035113741 -0.014660147 0.008274919 -0.014109769 -0.04195431 -0.011825399
0.024538564 0.0013066089 0.0010442594 -0.02299872 -0.038037654 -0.041733604 -0.0033229336 -0.03627881
-0.037456926 -0.034354426 -0.00057505735 0.011058479 -0.06617461 -0.035749856 -0.038366683 -0.068353936
-0.0008035848 -0.052902542 -0.057927817 -0.046144616 -0.011539094 -0.056348417 -0.032815196 -0.030652406
-0.050492905 -0.0060861213 -0.05058309 -0.03320647 0.040539045 0.030326867 0.0041301954 -0.050247405
-0.034986768 0.030307414 0.022830307 0.068080604 0.020309329 -0.037046116 0.03214455 -0.012112484
0.0424895 -0.0012930308 0.065754116 0.067745805 0.05302971 0.051372744 0.029089715 0.011302139

bias f4 [16]
00000000: e05d 7cbd fd36 e7bd 13c5 6abb 22d2 513d
00000010: c702 83bc 29f9 71be bdd3 e6bd 32ee 13be
00000020: 0c73 d0bd 0d08 0dbe 476e 93bd 8f0c c7bd
00000030: e4c8 9dbb 445d d1bc eda8 0ebd 830a b2bd
-0.061612964 -0.11289785 -0.0035823032 0.05122579 -0.015992535 -0.23630203 -0.112708546 -0.14446333
-0.101781934 -0.13772602 -0.07198768 -0.09719192 -0.004815208 -0.025557168 -0.03482907 -0.08693411

weight f4 [16]
00000000: 0509 7d3f dbb6 7a3f 6484 783f 659f 7a3f
00000010: a5c6 7c3f f3ec 813f bfb9 803f 69a2 873f
00000020: c517 803f 39fb 703f 65d8 833f 0515 7d3f
00000030: 8890 6d3f 9886 7f3f 44e7 683f 0637 873f
0.9884189 0.97935265 0.9707701 0.97899467 0.9874061 1.0150436 1.0056685 1.0596439
1.0007254 0.94133335 1.0300413 0.988602 0.9279866 0.9981475 0.90977883 1.0563667

bias f4 [16]
00000000: 9569 57bc d8df 9a3b 7da1 373d 90a0 843d
00000010: d201 8f3d 30ef 8b3d 51cc be3b 368e 0b3e
00000020: cdcc d83d 69df 363e eb00 0fbd 1f62 ca3d
00000030: 19de 003e c89d 08bd 888f 3f3e f97e 3cbd
-0.013147731 0.0047263913 0.04483174 0.06475937 0.06982769 0.06832731 0.0058226963 0.13628468
0.10585938 0.17858662 -0.034912985 0.09881996 0.12584724 -0.033353597 0.18707097 -0.046019528

running_mean f4 [16]
00000000: 7766 a33d a446 123e 29a2 073e c84f 983e
00000010: fc6a b23e 13d8 003d ba51 9f3d 3dd4 0b3d
00000020: 442b 293d 8146 f43b cdb4 893d 7434 3d3e
00000030: bc45 7a3d 4ee3 3f3e af7f 7e3d 234a 953d
0.07978528 0.1428476 0.13245453 0.29748368 0.34847248 0.031456064 0.0777926 0.034137953
0.041301027 0.007454694 0.06723938 0.1847704 0.06110166 0.18739054 0.062133487 0.07289531

running_var f4 [16]
00000000: 8fc9 f33e 5bb2 8e3f 0871 1d3e 2792 8d3e
00000010: 7a85 4f40 ceba ce3d b0c7 1a3f 6aa7 7f3e
00000020: 0b13 2b3e f41d 643c 3b4e 833e 1631 1a3f
00000030: 5001 5c3e 92ab 983f a34f 823e 1114 ea3e
0.47614715 1.114818 0.15375149 0.27650568 3.2425218 0.10094224 0.6046095 0.24966207
0.16706483 0.013923157 0.25645623 0.6023115 0.21484876 1.1927359 0.25451383 0.45718434

weight f4 [16, 16, 5, 5]
00000000: 9efc 8d3c 5a23 6b3d 963a 9e3c f1ba b93c
00000010: f648 2e3d 0436 fa3c b8c4 303d bf83 b9bc
00000020: 99b6 033d 2753 9a3c 259c e23c 1941 e6bc
00000030: a378 bbba b2d6 0bbd b2b2 213d 926a 8b3c
00000040: 12c6 203d 3745 143c 7109 943b f014 273d
00000050: 4d69 263d 8a6b 88bb 7d71 db3c 592d 433d
00000060: d623 183d 8863 db3b f00b 163c a057 373d
00000070: 76c5 273d 6b7c 08bb 6cf8 473d 7c6a 8d3c
00000080: 806b c6bc 5217 babc fd04 dd3c ae37 2c3d
00000090: cbcd 6ebc 97a3 05bd 02aa 13bd 86c5 c93a
000000a0: 2fc9 dabc 8695 713c a021 29bd 9a4e 923c
000000b0: 33b8 08bc 3b1e b13c 24c3 283d 415b 103d
000000c0: 8d5b 26bd 1108 9d3d 7b6f 373c b701 5f3d
000000d0: d0c3 bfbb dc8b 533d ff7e afbb 961e e73c
000000e0: f02b fa3c 2b67 a3bb c5ee dfbc 3717 693c
000000f0: 4180 313c 5fd5 cdbc 9232 ddbb 1f2a a93b
00000100: b681 60bc d008 3abc bf4c 3bbc bd27 e83c
00000110: 7e13 4c3d e380 1e3d c41f 843d 6831 2e3d
00000120: 52aa 27bd 95b3 0bbd a938 2cbc 65ec 48bb
00000130: 0983 f9bb 962a 09bd b7eb 8e3c 05af 5dbc
00000140: a4ba 73bc 6cd5 38bd 3505 153d c47b 85bb
00000150: db9c 93bc c780 d33c 53af 033d 743f d83c
00000160: c6db c73c fa69 16bd 36c6 48bd df38 5dbd
00000170: 3527 da3c 9adf 203d 3067 c4bc 574a 4bb9
00000180: 93c0 473c 346d e23c 7f53 483c 2c13 063d
00000190: 92f7 24bd 437d 0abd ad46 7fb8 a166 12bd
000001a0: e8cd 5bbd df4b c0bc 1dc7 c4bc 4b53 1ebc
000001b0: 8164 f53c 8557 30bd 6830 a3bc a42b 86bc
000001c0: b4e4 e6bb c499 2a3d b8b2 133d 5ba9 443a
000001d0: a143 483d d53b 20bd 1dfc 913d 6032 393b
000001e0: 5bb9 11bd dc2a 90bc 3a75 243d 16ed d33d
000001f0: b9c6 393a 07c8 2ebd 0949 f6bb abd3 a7bc
00000200: 77e3 74bd 2b0a 12bd 8677 56bd a6bb 9abd
00000210: 76f6 03bd 6832 4cbd bc72 27bd 417f e1bc
00000220: a830 aebd 232d 263c 234e 40bd 27d4 53bd
00000230: 4bff 25bd 8133 63bd 47fa f6bc 34ef 6fbd
00000240: 842b 8cbd 0972 1cbd 2d0f 9dbd 46b4 71bd
00000250: cf63 173b 8262 d3bc fa36 843d 2ac3 b83c
00000260: c676 b63d 3f10 7a3c de7d 13bd 6002 083d
00000270: c1e6 b53c b51a eabb c8a0 12bc 4193 bbbc
00000280: 4fd4 e5bb a1a4 383d 9568 e93c 92db 07bc
00000290: e785 39bd 2cef 683d 5af8 133b f873 8a3d
000002a0: 7600 6e3d 7ddc 48bd 4542 143c aade 34bc
000002b0: e284 fc3c b525 973b a86e 33bc 0751 0a3d
000002c0: 0fef e63b 0fd4 003e 9020 0d3d 26d3 76bd
000002d0: a371 fc3a 904c e1bc 1903 1ebc a670 a4bd
000002e0: e39d 203d 25a5 cf3c fca7 a0bd a687 8b3c
000002f0: 333d fabc a368 e0bc 299c 683d 4e2b aabc
00000300: cf85 693d 40c1 dd3c 59f9 66bd 965c 2d3d
00000310: 3563 3bbd e003 0d3d 24a5 9bbc 0e02 403c
00000320: 8a01 36bc 6e8c b43c 69da 06bd 3a0c 853d
00000330: 8160 d23d df59 2f3d 6da0 dabc 54b0 f8bc
00000340: 59a5 2b3d a15d dd3c d4bc 643d 480a 123d
00000350: a255 c43b 7bf4 86bc 0354 883d 5efd 2cbc
00000360: 5e54 55bc df10 f93c 902a 8ebc 7663 703d
00000370: c98c 673d 67bc 243c f9ef cdbc 861c a83b
00000380: 193e 833d 17af a9bc 4462 cabc 8b7b 563c
00000390: 2d19 17bc ab1e 153d f0c3 87ba 11eb 083c
000003a0: a68a 8fbc 47ed c43c f909 793c 8369 013d
000003b0: 19de 42bc e105 87bc ef10 5c3c 6797 26bb
000003c0: 4959 4b3b 7a30 8bbb 899f 40bb b2b4 2fbc
000003d0: 6afe 8dbb 3794 3dbc 93e6 f43c 94b2 2e3c
000003e0: 7925 213d cb5e fd3c ab91 4ebd a3b4 7cbd
000003f0: 3355 47bd c8da b5bc 1ae9 7bbd 3188 52bc
0.017332371 0.05740676 0.019315045 0.022672148 0.04255005 0.030543335 0.043156356 -0.02264583
0.03215656 0.018838478 0.027662346 -0.028107213 -0.001430292 -0.034140296 0.039477058 0.01701859
0.039251395 0.009049705 0.004517727 0.040791452 0.040627766 -0.0041632103 0.026787514 0.04765067
0.03714355 0.0066952147 0.00915812 0.0447613 0.040959798 -0.0020826112 0.048820898 0.01726269
-0.024221182 -0.022716198 0.026979918 0.042045288 -0.014575432 -0.032626715 -0.036050804 0.001539395
-0.02670726 0.014745122 -0.041291833 0.017859746 -0.008344698 0.02162086 0.041201726 0.035243277
-0.040614653 0.07667554 0.011196013 0.054444995 -0.0058522 0.051647052 -0.0053557153 0.028212827
0.03053853 -0.004986664 -0.027335534 0.014226726 0.010833801 -0.025126157 -0.006750413 0.005162492
-0.0137028005 -0.01135464 -0.011431872 0.028339261 0.049823277 0.038697135 0.06451371 0.042527586
-0.040933914 -0.03410681 -0.010511556 -0.003065848 -0.0076144976 -0.03348788 0.017446382 -0.013530497
-0.014876042 -0.04512541 0.03638192 -0.004073592 -0.01801913 0.025818242 0.032149624 0.026397444
0.024396788 -0.03672216 -0.049017154 -0.054009315 0.026630023 0.039275743 -0.023974985 -0.00019387282
0.012191909 0.027639963 0.012226938 0.032733127 -0.040275164 -0.033810865 -6.086256e-05 -0.035742406
-0.053663164 -0.023473678 -0.024020726 -0.009663413 0.02995515 -0.043052215 -0.019920543 -0.016378231
-0.0070463065 0.04165055 0.03605911 0.00075020426 0.04889262 -0.03911956 0.07128165 0.0028258786
-0.03557716 -0.017598562 0.04015086 0.10347955 0.0007086802 -0.04267123 -0.0075160307 -0.020486673
-0.05978724 -0.03565423 -0.05236008 -0.07555322 -0.032217465 -0.04985276 -0.040880904 -0.0275265
-0.08505374 0.010142597 -0.046949517 -0.051715996 -0.04052667 -0.05546904 -0.030148638 -0.05857773
-0.068442374 -0.03819469 -0.0766891 -0.059009813 0.0023100262 -0.025803808 0.064557984 0.022553999
0.08909373 0.015262662 -0.03600871 0.03320539 0.022204759 -0.007144297 -0.008949466 -0.022897365
-0.0070138345 0.045078877 0.028492251 -0.008292096 -0.045293715 0.056868717 0.002257845 0.067604005
0.05810591 -0.0490384 0.009049003 -0.011039415 0.030825082 0.0046126493 -0.0109516755 0.03376868
0.007047541 0.12580894 0.034454882 -0.06025996 0.0019259941 -0.027502328 -0.009644293 -0.080292985
0.039213073 0.025347302 -0.078445405 0.017032456 -0.03054676 -0.027393645 0.05678955 -0.020772602
0.057012375 0.027069688 -0.05639014 0.042324625 -0.045748908 0.034427524 -0.018999644 0.01171924
-0.011108765 0.022039618 -0.032923136 0.06496473 0.10272313 0.042810317 -0.026687825 -0.030357517
0.041905735 0.027022185 0.055844143 0.035654336 0.0059916535 -0.016474 0.06656649 -0.010558454
-0.013020603 0.030403553 -0.01735428 0.058688603 0.056530748 0.010054684 -0.025138842 0.0051303534
0.064083286 -0.020713372 -0.02470506 0.013090978 -0.009222311 0.0364062 -0.0010358077 0.008356825
-0.017522167 0.024038924 0.015200132 0.031594764 -0.0118937725 -0.016482295 0.013431772 -0.0025419833
0.003102856 -0.004247722 -0.0029391965 -0.010724233 -0.004333307 -0.011570982 0.029895103 0.0106626935
0.039342377 0.03092899 -0.05043189 -0.061695706 -0.048665237 -0.02219905 -0.0615016 -0.012849853

bias f4 [16]
00000000: 45a8 b4bc efcb 07be cf3f 40be 99ff bdbd
00000010: 6787 54bd 96c0 3abe 8b2b d3bd e216 dcbd
00000020: 4d4b 24be bcf6 27be a985 3abe 158b 2dbe
00000030: 329c f1bd 8201 05be 92d8 42be 48ca 8fbd
-0.022052893 -0.13261388 -0.18774341 -0.09277267 -0.051886942 -0.18237528 -0.103110395 -0.10746552
-0.1604435 -0.16402715 -0.1821505 -0.16947587 -0.1179737 -0.12988856 -0.19027928 -0.07021004

weight f4 [16]
00000000: 1709 b03f c954 b63f 03c8 b23f a32b b83f
00000010: 6028 ad3f c159 c33f 50b4 b63f c38c bf3f
00000020: d4e8 b43f 6923 ac3f 2dea b53f 8dfe b63f
00000030: 8878 c13f bc94 bb3f 7872 bc3f cff0 b03f
1.3752774 1.4244624 1.3967289 1.4388317 1.3527946 1.5261766 1.4273777 1.4964832
1.4133554 1.3448306 1.421209 1.4296433 1.5114908 1.4654765 1.4722433 1.3823489

bias f4 [16]
00000000: 98ff 08be c7cd 143e f803 08be 21eb 163e
00000010: 2fc3 063e b8c7 3dbe e4b5 113e f806 2ebe
00000020: be35 0fbe 98aa 07be 1d30 11be 4e7b 10be
00000030: 18af 293e 7ecb 1f3e a7ac 1cbe 3271 0b3e
-0.13378751 0.14531623 -0.13282764 0.14738132 0.13160394 -0.18533218 0.14229542 -0.16994846
-0.13985345 -0.1324867 -0.1417851 -0.14109537 0.16570699 0.1560497 -0.15300237 0.136174

running_mean f4 [16]
00000000: d670 813e 1e8f 593d c4b8 ac3d 6588 323d
00000010: 3e96 ba3d c228 373d 6580 693d bb36 ea3d
00000020: d1bf 083d 9d7a 313d 6dfc 1c3d 5ef0 af3d
00000030: 395d 5a3d 372b 863d a844 b43d 8287 343d
0.252814 0.053115003 0.08433679 0.043587107 0.09110688 0.044716604 0.057007212 0.1143622
0.033386055 0.043329824 0.03832667 0.08590768 0.05331156 0.06551211 0.08802158 0.044074543

running_var f4 [16]
00000000: 95cb ad3e 5f10 bc3d 2c4f 563e 3c56 953d
00000010: dbb0 fe3d 5f80 ac3d 01be dd3d a8e7 b23e
00000020: 36db 723d 26ac d53d 438d b53d 72dd 623e
00000030: 0bc0 cf3d 8603 0a3e 3c3e 863e 7a3b 8d3d
0.33944383 0.0918281 0.20928639 0.072918385 0.12436076 0.08422922 0.10827256 0.34942365
0.059291087 0.10433225 0.08864834 0.22154787 0.10144051 0.13477907 0.26219356 0.0689611

weight f4 [2, 16]
00000000: 0bc0 e6be a380 de3e 9e66 00bf 67c3 593e
00000010: 5c5d 033f 820c bcbe ba8c d33e 3ebd 43be
00000020: 68ab 87be ba30 f8be 1e58 cabe ca76 f5be
00000030: b824 be3e d7ca 133e f65c fabe 32a6 fb3e
00000040: 82b5 013f dc87 8cbe fa86 093f 562b f4be
00000050: 0d64 bbbe 7ea6 5d3e 4c98 b8be 7f7d 033f
00000060: 55e1 093f 41ee b03e 8e25 d13e 09be d83e
00000070: c298 60be 867f f7be c081 9c3e 424e a4be
-0.45068392 0.43457517 -0.5015658 0.21265946 0.5131433 -0.36728293 0.41318303 -0.19115159
-0.2649796 -0.48474675 -0.39520353 -0.4794219 0.3713739 0.14432846 -0.4889905 0.49150234
0.50667584 -0.27447402 0.5372158 -0.47689313 -0.3659977 0.21645543 -0.36053693 0.51363367
0.53859454 0.34556773 0.40848964 0.42332485 -0.21933272 -0.4833948 0.3056774 -0.32090956

bias f4 [2]
00000000: 8a8f d3bd eedc 91be
-0.10330112 -0.28488868

exp_avg f4 [16, 4, 5, 5]
00000000: 6b9d 963b 8912 a03b d990 a63b e9f5 ae3b
00000010: 10a2 bc3b e52d 9a3b 5a28 aa3b a42d b03b
00000020: 833d b13b 4c71 bf3b 9c19 a43b 7f51 b33b
00000030: 99f9 b83b ab11 bb3b 10fc c93b f4a5 ae3b
00000040: 10d0 b23b 186d b53b 7e7e be3b 51cd ca3b
00000050: 9bf0 af3b c524 bb3b 9a5a b53b bd98 ba3b
00000060: 0a0b c53b 699d 963b 8912 a03b d890 a63b
00000070: e9f5 ae3b 0fa2 bc3b e52d 9a3b 5a28 aa3b
00000080: a42d b03b 823d b13b 4c71 bf3b 9b19 a43b
00000090: 7e51 b33b 97f9 b83b aa11 bb3b 0efc c93b
000000a0: f3a5 ae3b 13d0 b23b 196d b53b 7d7e be3b
000000b0: 50cd ca3b 9cf0 af3b c424 bb3b 975a b53b
000000c0: be98 ba3b 0a0b c53b 6b9d 963b 8912 a03b
000000d0: da90 a63b eaf5 ae3b 10a2 bc3b e52d 9a3b
000000e0: 5d28 aa3b a52d b03b 7f3d b13b 4b71 bf3b
000000f0: 9b19 a43b 7e51 b33b 98f9 b83b ac11 bb3b
00000100: 0ffc c93b f7a5 ae3b 12d0 b23b 186d b53b
00000110: 7a7e be3b 51cd ca3b 9bf0 af3b c624 bb3b
00000120: 985a b53b b898 ba3b 0a0b c53b 1290 a439
00000130: 0952 d0ba 07ba 0aba 0967 e139 5146 a0b9
00000140: bf19 21bb 00ec 2cbb 77e0 f0ba 5931 74ba
00000150: a771 98ba 5918 17bb 3a72 4abb 1813 e1ba
00000160: 4a23 33ba a9c8 deb9 c246 48bb be11 49bb
00000170: 343f 88ba 6962 ddb9 88c2 8837 4b44 60bb
00000180: 4271 54bb a340 f2b9 3cf1 10ba 1393 0b39
00000190: 6e88 063b 2721 0a3b 835b 103b 8f74 0f3b
000001a0: f79e fb3a f390 793a 40ea 513a 656c 8b3a
000001b0: f37b 833a 920b 5e3a b603 113a 7d3c 183a
000001c0: 0939 173a 4acc 0e3a b429 0d3a b501 473a
000001d0: 86ae 2e3a c7ce 123a dfc2 f639 80d0 003a
000001e0: e59d 243a d2de 313a f3a5 303a 0d0a 113a
000001f0: 27ab b139 6e88 063b 2721 0a3b 835b 103b
00000200: 8f74 0f3b f79e fb3a f390 793a 40ea 513a
00000210: 656c 8b3a f37b 833a 930b 5e3a b603 113a
00000220: 7d3c 183a 0939 173a 4acc 0e3a b429 0d3a
00000230: b501 473a 86ae 2e3a c9ce 123a dec2 f639
00000240: 80d0 003a e69d 243a d0de 313a f4a5 303a
00000250: 0d0a 113a 25ab b139 6e88 063b 2721 0a3b
00000260: 835b 103b 8f74 0f3b f79e fb3a f390 793a
00000270: 40ea 513a 656c 8b3a f37b 833a 930b 5e3a
00000280: b603 113a 7d3c 183a 0a39 173a 4bcc 0e3a
00000290: b529 0d3a b401 473a 86ae 2e3a c9ce 123a
000002a0: e0c2 f639 81d0 003a e69d 243a cfde 313a
000002b0: f3a5 303a 0f0a 113a 2bab b139 2f70 5a3a
000002c0: 2995 793a f717 0b3b 5379 3d3b be2f 2b3b
000002d0: 0f62 c238 7fb5 6fb9 3a36 273a ca19 ae3a
000002e0: 6b5b 0f3b 11dd f2b9 5bfd ea36 e772 80b9
000002f0: 3705 6e3a 70c0 5a3a d531 96ba c5da 96ba
00000300: 34e8 8bb9 9aa5 113a 25fd 433a 734b 73ba
00000310: e6c6 5eba ce01 123a bcd0 913a a024 c53a
00000320: 5f70 f339 36e9 beba 9ec2 a0ba a5a0 99ba
00000330: 2fd7 5039 1f13 503a 5198 c0ba 6a46 8fba
00000340: c03b c5b9 9716 123a b171 ec39 99cf 89ba
00000350: 6d00 b8ba 0ada 1aba ed87 763a fb6c d3b8
00000360: b882 59ba 63a0 c9ba f72d 43ba 56b8 543a
00000370: 2a68 7db9 cf7a acba e454 02bb eea4 aeba
00000380: 69a0 fdb8 5e70 f339 36e9 beba 9ec2 a0ba
00000390: a7a0 99ba 2fd7 5039 1f13 503a 5298 c0ba
000003a0: 6a46 8fba c03b c5b9 9516 123a b171 ec39
000003b0: 98cf 89ba 6d00 b8ba 0ada 1aba e687 763a
000003c0: fb6c d3b8 b882 59ba 63a0 c9ba f62d 43ba
000003d0: 56b8 543a 3268 7db9 d27a acba e454 02bb
000003e0: eea4 aeba 59a0 fdb8 5f70 f339 36e9 beba
000003f0: 9ec2 a0ba a5a0 99ba 2fd7 5039 1f13 503a
0.0045964024 0.004885022 0.005083185 0.0053393734 0.005756624 0.004705178 0.0051927986 0.0053765345
0.005408944 0.0058423635 0.0050079357 0.0054723616 0.0056449887 0.0057088933 0.0061640814 0.0053298417
0.005456932 0.0055366866 0.005813419 0.0061890264 0.0053692586 0.0057111704 0.005534482 0.0056944774
0.006013279 0.0045964015 0.004885022 0.0050831847 0.0053393734 0.0057566236 0.004705178 0.0051927986
0.0053765345 0.0054089436 0.0058423635 0.005007935 0.005472361 0.005644988 0.005708893 0.0061640805
0.0053298413 0.0054569333 0.005536687 0.0058134184 0.006189026 0.005369259 0.00571117 0.005534481
0.005694478 0.006013279 0.0045964024 0.004885022 0.0050831856 0.005339374 0.005756624 0.004705178
0.0051928 0.005376535 0.0054089422 0.005842363 0.005007935 0.005472361 0.0056449883 0.0057088938
0.006164081 0.005329843 0.005456933 0.0055366866 0.005813417 0.0061890264 0.0053692586 0.005711171
0.0055344813 0.005694475 0.006013279 0.00031387858 -0.0015893589 -0.00052920025 0.0004299211 -0.00030569968
-0.0024581996 -0.0026385784 -0.0018377443 -0.00093152147 -0.0011630551 -0.0023055284 -0.0030890838 -0.0017171828
-0.00068335666 -0.00042492643 -0.0030559753 -0.0030680741 -0.0010394813 -0.00042225726 1.6303049e-05 -0.0034220393
-0.003241614 -0.00046205995 -0.0005529111 0.00013310862 0.0020528096 0.002107689 0.0022027201 0.0021889543
0.0019197155 0.00095201953 0.0008007623 0.0010637162 0.0010031447 0.0008470352 0.0005531864 0.00058073533
0.0005768692 0.00054473116 0.00053849374 0.0007591502 0.0006663579 0.000560027 0.00047065967 0.00049138814
0.00062796316 0.0006785217 0.00067385955 0.0005532809 0.0003388759 0.0020528096 0.002107689 0.0022027201
0.0021889543 0.0019197155 0.00095201953 0.0008007623 0.0010637162 0.0010031447 0.00084703526 0.0005531864
0.00058073533 0.0005768692 0.00054473116 0.00053849374 0.0007591502 0.0006663579 0.00056002714 0.00047065964
0.00049138814 0.0006279632 0.0006785216 0.0006738596 0.0005532809 0.00033887583 0.0020528096 0.002107689
0.0022027201 0.0021889543 0.0019197155 0.00095201953 0.0008007623 0.0010637162 0.0010031447 0.00084703526
0.0005531864 0.00058073533 0.00057686924 0.0005447312 0.0005384938 0.00075915013 0.0006663579 0.00056002714
0.0004706597 0.0004913882 0.0006279632 0.0006785215 0.00067385955 0.000553281 0.000338876 0.00083327567
0.0009520823 0.0021224 0.0028911426 0.0026120986 9.268906e-05 -0.00022860429 0.0006378625 0.0013282832
0.0021874558 -0.00046322544 7.003238e-06 -0.0002449967 0.00090797566 0.00083447155 -0.0011458943 -0.001150929
-0.0002668515 0.00055559876 0.0007476381 -0.0009280957 -0.0008498266 0.0005569727 0.001112483 0.0015040822
0.00046432295 -0.0014565352 -0.0012265032 -0.001172085 0.00019916588 0.00079374196 -0.0014693831 -0.0010931019
-0.00037619285 0.0005572824 0.00045098134 -0.001051414 -0.0014038213 -0.0005907124 0.000940441 -0.00010081563
-0.00082973717 -0.0015382882 -0.0007445509 0.00081146264 -0.00024166764 -0.0013159158 -0.0019887025 -0.0013324299
-0.00012093859 0.00046432292 -0.0014565352 -0.0012265032 -0.0011720852 0.00019916588 0.00079374196 -0.0014693832
-0.0010931019 -0.00037619285 0.0005572823 0.00045098134 -0.0010514138 -0.0014038213 -0.0005907124 0.0009404406
-0.00010081563 -0.00082973717 -0.0015382882 -0.00074455084 0.00081146264 -0.00024166776 -0.0013159162 -0.0019887025
-0.0013324299 -0.00012093847 0.00046432295 -0.0014565352 -0.0012265032 -0.001172085 0.00019916588 0.00079374196

exp_avg_sq f4 [16, 4, 5, 5]
00000000: a3c4 4239 399f 4439 ea44 4739 ba54 4a39
00000010: 4737 4e39 c251 4139 507f 4439 5eee 4739
00000020: 3ae7 4f39 8d24 5339 10e2 4439 52f0 4939
00000030: dd7d 4d39 40f9 5139 07ea 5539 c28f 4839
00000040: 53a0 4c39 d5da 5039 4030 5739 8200 5a39
00000050: e16f 4a39 ff15 4e39 883c 5639 e40d 5a39
00000060: 204f 5a39 a5c4 4239 389f 4439 eb44 4739
00000070: ba54 4a39 4737 4e39 c251 4139 507f 4439
00000080: 5fee 4739 3be7 4f39 8d24 5339 11e2 4439
00000090: 52f0 4939 dd7d 4d39 40f9 5139 08ea 5539
000000a0: c28f 4839 56a0 4c39 d7da 5039 4130 5739
000000b0: 8200 5a39 e16f 4a39 ff15 4e39 8a3c 5639
000000c0: e40d 5a39 1f4f 5a39 a5c4 4239 399f 4439
000000d0: eb44 4739 bb54 4a39 4737 4e39 c251 4139
000000e0: 507f 4439 5eee 4739 3ce7 4f39 8b24 5339
000000f0: 11e2 4439 51f0 4939 dd7d 4d39 40f9 5139
00000100: 06ea 5539 c28f 4839 55a0 4c39 d6da 5039
00000110: 4230 5739 8300 5a39 e16f 4a39 fe15 4e39
00000120: 8b3c 5639 e30d 5a39 1e4f 5a39 87d4 b538
00000130: 62e7 1b38 0e6c 0c38 0fdf d637 0ecd 5137
00000140: bfc5 d737 9eca 8f37 2c15 a037 db0d 2737
00000150: 9e35 9536 1786 9837 f873 3937 96e7 9836
00000160: be91 5335 a57c 0636 e4db 7537 c28a 2f37
00000170: ee4c 2036 b39e 0435 a3ea b135 4199 d037
00000180: 8e2d 8d37 03f7 0d37 8c6c 1a37 ea08 4737
00000190: 6a6a 8f38 0ac2 8238 e94d 7738 54b6 8138
000001a0: 7609 8a38 484e 6c38 76d6 5538 78eb 5338
000001b0: 7d9e 6538 ad05 6938 9eaf 5f38 362a 6338
000001c0: 936d 5a38 0cbe 5d38 3dc3 6f38 bb13 5b38
000001d0: d925 6738 4e7a 6638 b07e 5c38 7c56 6e38
000001e0: 4197 5f38 cd4e 6138 2df7 7038 2096 6538
000001f0: b499 6f38 6a6a 8f38 0ac2 8238 e94d 7738
00000200: 54b6 8138 7609 8a38 484e 6c38 76d6 5538
00000210: 78eb 5338 7d9e 6538 ad05 6938 9eaf 5f38
00000220: 362a 6338 936d 5a38 0bbe 5d38 3dc3 6f38
00000230: bb13 5b38 d925 6738 4e7a 6638 b07e 5c38
00000240: 7c56 6e38 3f97 5f38 cd4e 6138 2df7 7038
00000250: 2096 6538 b399 6f38 6a6a 8f38 0ac2 8238
00000260: e94d 7738 54b6 8138 7609 8a38 484e 6c38
00000270: 76d6 5538 78eb 5338 7d9e 6538 ad05 6938
00000280: a0af 5f38 362a 6338 936d 5a38 0bbe 5d38
00000290: 3ec3 6f38 bb13 5b38 d925 6738 4e7a 6638
000002a0: ad7e 5c38 7a56 6e38 4197 5f38 cd4e 6138
000002b0: 2df7 7038 2196 6538 b399 6f38 8ebb f039
000002c0: 6b83 e039 6e6c da39 38fd dd39 762e ef39
000002d0: 045a e739 31f8 d139 84e9 ce39 c940 d739
000002e0: ea56 ec39 6cf1 cc39 e116 c239 3a86 c739
000002f0: 7261 dd39 dc54 ec39 c5e8 cb39 5d80 c839
00000300: 08eb d139 d75c dd39 9e02 eb39 3553 e139
00000310: ff33 da39 1332 e039 2c97 ed39 6504 043a
00000320: 3474 4838 caa7 d737 2332 d737 a128 fb37
00000330: b589 6538 1f4a 4f38 5a57 d637 1727 d437
00000340: 0d00 d737 ceaa 3e38 5ff2 6a38 8b64 e437
00000350: 6955 e537 42ae dc37 2498 2f38 94c7 8038
00000360: ebdc fa37 408d f037 1fec f337 6658 3138
00000370: 32ad 9338 8b37 3b38 6e33 1e38 64d5 2738
00000380: a38b 6f38 3474 4838 caa7 d737 2332 d737
00000390: a128 fb37 b689 6538 1f4a 4f38 5a57 d637
000003a0: 1727 d437 0c00 d737 ceaa 3e38 60f2 6a38
000003b0: 8b64 e437 6955 e537 42ae dc37 2498 2f38
000003c0: 94c7 8038 ebdc fa37 408d f037 1fec f337
000003d0: 6658 3138 32ad 9338 8b37 3b38 6e33 1e38
000003e0: 64d5 2738 a48b 6f38 3374 4838 caa7 d737
000003f0: 2332 d737 a128 fb37 b589 6538 1f4a 4f38
0.00018574535 0.00018751332 0.00019003791 0.00019295784 0.00019666283 0.00018436371 0.00018739444 0.00019066918
0.00019827197 0.00020136144 0.00018776231 0.0001925838 0.00019597211 0.00020024646 0.00020400445 0.0001912704
0.00019514681 0.00019917947 0.00020521972 0.0002079029 0.000193059 0.00019653885 0.0002043118 0.00020795275
0.00020819576 0.00018574538 0.0001875133 0.00019003793 0.00019295784 0.00019666283 0.00018436371 0.00018739444
0.00019066919 0.00019827198 0.00020136144 0.00018776233 0.0001925838 0.00019597211 0.00020024646 0.00020400446
0.0001912704 0.00019514686 0.0001991795 0.00020521974 0.0002079029 0.000193059 0.00019653885 0.00020431183
0.00020795275 0.00020819575 0.00018574538 0.00018751332 0.00019003793 0.00019295786 0.00019666283 0.00018436371
0.00018739444 0.00019066918 0.000198272 0.00020136141 0.00018776233 0.00019258379 0.00019597211 0.00020024646
0.00020400443 0.0001912704 0.00019514684 0.00019917949 0.00020521975 0.00020790291 0.000193059 0.00019653884
0.00020431184 0.00020795273 0.00020819574 8.670339e-05 3.717037e-05 3.3479235e-05 2.5614658e-05 1.2505114e-05
2.572208e-05 1.714128e-05 1.9083345e-05 9.957202e-06 4.446788e-06 1.8182252e-05 1.105386e-05 4.556913e-06
7.881571e-07 2.0040109e-06 1.4654335e-05 1.046312e-05 2.3886637e-06 4.940477e-07 1.3255816e-06 2.4866897e-05
1.6829723e-05 8.461767e-06 9.204388e-06 1.18634e-05 6.8385925e-05 6.235026e-05 5.896195e-05 6.1851606e-05
6.582115e-05 5.633969e-05 5.098289e-05 5.0525618e-05 5.474546e-05 5.5556815e-05 5.33309e-05 5.416033e-05
5.20773e-05 5.28675e-05 5.716387e-05 5.2232044e-05 5.510994e-05 5.495018e-05 5.2570074e-05 5.6824167e-05
5.330821e-05 5.371757e-05 5.745066e-05 5.473767e-05 5.7125188e-05 6.8385925e-05 6.235026e-05 5.896195e-05
6.1851606e-05 6.582115e-05 5.633969e-05 5.098289e-05 5.0525618e-05 5.474546e-05 5.5556815e-05 5.33309e-05
5.416033e-05 5.20773e-05 5.2867497e-05 5.716387e-05 5.2232044e-05 5.510994e-05 5.495018e-05 5.2570074e-05
5.6824167e-05 5.3308202e-05 5.371757e-05 5.745066e-05 5.473767e-05 5.7125184e-05 6.8385925e-05 6.235026e-05
5.896195e-05 6.1851606e-05 6.582115e-05 5.633969e-05 5.098289e-05 5.0525618e-05 5.474546e-05 5.5556815e-05
5.3330907e-05 5.416033e-05 5.20773e-05 5.2867497e-05 5.7163874e-05 5.2232044e-05 5.510994e-05 5.495018e-05
5.2570063e-05 5.682416e-05 5.330821e-05 5.371757e-05 5.745066e-05 5.4737673e-05 5.7125184e-05 0.00045916106
0.00042822523 0.00041660987 0.00042341067 0.00045620248 0.0004412682 0.00040048503 0.00039465365 0.00041056264
0.00045078184 0.00039089785 0.0003701961 0.00038056244 0.00042225007 0.00045076653 0.00038892604 0.0003824261
0.00040038698 0.00042221576 0.00044824643 0.00042977338 0.0004161894 0.00042761918 0.00045316794 0.0005036055
4.779194e-05 2.570813e-05 2.5653344e-05 2.9940451e-05 5.4726104e-05 4.9421677e-05 2.5551464e-05 2.5290572e-05
2.563002e-05 4.5458604e-05 5.6015673e-05 2.7226537e-05 2.73387e-05 2.6307189e-05 4.1864943e-05 6.14069e-05
2.9905195e-05 2.8676004e-05 2.907781e-05 4.2282416e-05 7.0417664e-05 4.4636003e-05 3.7718033e-05 4.001464e-05
5.7112087e-05 4.779194e-05 2.570813e-05 2.5653344e-05 2.9940451e-05 5.4726108e-05 4.9421677e-05 2.5551464e-05
2.5290572e-05 2.5630019e-05 4.5458604e-05 5.6015677e-05 2.7226537e-05 2.73387e-05 2.6307189e-05 4.1864943e-05
6.14069e-05 2.9905195e-05 2.8676004e-05 2.907781e-05 4.2282416e-05 7.0417664e-05 4.4636003e-05 3.7718033e-05
4.001464e-05 5.711209e-05 4.7791935e-05 2.570813e-05 2.5653344e-05 2.9940451e-05 5.4726104e-05 4.9421677e-05

exp_avg f4 [16]
00000000: 8463 fe38 5946 4c39 922b 11ba 19db 31bb
00000010: 567d af3b 76ec 64bc 780e 15bc 13bb 59bb
00000020: c60c 123b 91c5 7b37 d3db 703a ddea b9ba
00000030: 6cec f73b 90fb 91ba 7f8f a4bb 01ea 4bbd
0.000121302 0.00019481163 -0.00055378035 -0.002713865 0.0053555174 -0.013972392 -0.009097688 -0.0033223077
0.0022285446 1.5006765e-05 0.000918803 -0.0014184375 0.0075660255 -0.0011137594 -0.005021989 -0.04978371

exp_avg_sq f4 [16]
00000000: 8706 0539 3b91 e139 deb7 3a3a 911b 3138
00000010: 8e48 d039 b31f 323b 5cff 513b 07bc 443b
00000020: 30a5 593a d4f8 d635 6c8c 613a 6e39 1e3a
00000030: aa73 4f3b 262c 3239 cfab 7b39 9ad6 653c
0.000126863 0.0004302355 0.0007122735 4.222576e-05 0.0003972691 0.0027179539 0.0032043075 0.00300193
0.0008302508 1.6016661e-06 0.00086039933 0.00060357794 0.0031654635 0.0001699185 0.00024001229 0.014028216

exp_avg f4 [16]
00000000: f060 cd37 1d5f bb3a f742 3c3a 6602 e9b9
00000010: bfcf 0eba 406d 8fba a2b8 753a 2bf8 82ba
00000020: b69e 5abb da6f 893a 72ad 2c3a e783 87b9
00000030: 8e48 36b7 9ad0 6db7 19e2 fb3a 68f7 6fb8
2.4483044e-05 0.0014295314 0.00071816094 -0.0004444301 -0.00054478267 -0.0010942593 0.0009373521 -0.0009992173
-0.003335876 0.0010485605 0.00065871247 -0.0002584748 -1.0864938e-05 -1.417487e-05 0.0019217163 -5.7212455e-05

exp_avg_sq f4 [16]
00000000: e560 0737 360e 0938 3b83 2838 cc02 4237
00000010: b146 8737 cabe 2339 e075 ea37 f1a2 0038
00000020: 599b 5a39 5661 a636 b463 5538 9698 4937
00000030: 5620 8937 5ee0 6735 44dc 8637 a474 6f37
8.069187e-06 3.267658e-05 4.017654e-05 1.1563952e-05 1.6126172e-05 0.00015615966 2.7949864e-05 3.066933e-05
0.00020847972 4.958517e-06 5.0876013e-05 1.201606e-05 1.634673e-05 8.6380703e-07 1.6076614e-05 1.4272668e-05

exp_avg f4 [16]
00000000: 802f 063a e47d d138 d9b8 8b39 479d 5339
00000010: 80cc 71b9 2106 7f3a 9b79 0ab9 1c0e d03a
00000020: 3565 12ba 4f10 c238 7576 0339 d2ea 8f39
00000030: f05c acb9 4bd5 203a 085e 85b7 35c9 b9b9
0.00051187724 9.9893456e-05 0.00026649868 0.00020181118 -0.00023059733 0.00097283913 -0.00013206007 0.0015873346
-0.0005584539 9.2536786e-05 0.00012537262 0.0002745004 -0.0003287564 0.0006135299 -1.5898622e-05 -0.0003543586

exp_avg_sq f4 [16]
00000000: 6567 9036 10c4 ac36 9f74 cb36 7de3 b036
00000010: 1494 3237 5ca0 2e38 c311 2437 ba83 3538
00000020: 7d23 0038 c674 6836 ef91 e836 dfdb e036
00000030: 7703 a937 e8b6 fe36 8d58 c236 5eab 9c36
4.303571e-06 5.148824e-06 6.063448e-06 5.271692e-06 1.0644104e-05 4.163418e-05 9.779297e-06 4.3276443e-05
3.055063e-05 3.4638665e-06 6.9311277e-06 6.7013166e-06 2.0147983e-05 7.591083e-06 5.791959e-06 4.669112e-06
