Models/Svetlana/MyoFuse.pth (torch, 286804 bytes, 63 tensors)

weight f4 [16, 4, 5, 5]
00000000: eec8 a0bb 949f ce3d 1b97 983c eff2 af3d
00000010: 3857 a63d 53b0 053c 9601 05bc 44f8 c8bc
00000020: a648 a53a a774 aa3c 3452 b8bd 5561 6c3d
00000030: 19ad bf3d 586d ae3d 26bf 94bd 78a5 ac3c
00000040: 6620 cebd 1001 213d 7f6f bf3c e79d b9bd
00000050: c108 ed3c ff65 91bd f981 fdbd aa76 4b3d
00000060: a3c7 2e3d a64a da3d a50b 213c dfd0 823c
00000070: bfd1 963c 0de0 6ebc d9e8 0cbd 3183 50bc
00000080: 9b2f 6fbd cd87 133d ea2b 673d 8886 9bbb
00000090: 3353 62bd 472d e73c 3181 15bd 10de 60bd
000000a0: 337b c33b f053 e3bd 6b0c b6bd 12c1 82bd
000000b0: 37da 403c ab19 6c3d a5e3 92bd a125 07be
000000c0: 4427 fe3c 2c51 aebd bb89 33bd 9917 f43d
000000d0: 9bd8 953d ec2b 7b3a fbbc 03bd 8c7e b3bc
000000e0: 2f13 923c ba4d c23d afe7 523d 165a 5cbd
000000f0: 79f0 b5bb 5a61 bdbd ba19 e43c 94ba bd3d
00000100: ea73 66bd db8b 8fbd 0607 ad3d 488b d0bb
00000110: 50ba 81bd e22f b8bd 77c1 8cbb 3927 2fbc
00000120: 5aa6 e2bd 3369 d9bd 0133 a6bd 5ad1 b43d
00000130: e54a c2ba 3b7b 19bd b9a9 fd3d f2b2 52bd
00000140: e207 cc3d 2e68 de3d 1596 b63d 4615 12bd
00000150: 7697 873d bb2a 6ebd 7a75 a5bc f131 9cbc
00000160: 4bec bfbd 0c6a e43c f015 afbd 90b1 17bb
00000170: 03dd 663d 3424 153b 81b5 88bd 7b65 993c
00000180: 007b 8b3d 2364 9ebd a414 0e3d dfd6 4c3d
00000190: 2b55 bcbd d1a0 113b 2727 d73d b1a6 fdbc
000001a0: 03df f6bc 3743 86bd a4eb 9abd 6eff 76bd
000001b0: 392f 6e3d fbfe 5bbd 7ad2 9f3d 31cc 81bd
000001c0: ff1a c33d 3618 813a c056 d53d 6fe8 8dbb
000001d0: b83e a63d 0b34 213d 09ae 463d 80cd 3ebd
000001e0: c4bb bcbd 42b4 a1bd af73 6cbd 997f 133d
000001f0: 7b9a 313d 5c2f 5dbd f070 10bd cd9b 913d
00000200: 1942 9d3d 7b21 0a3d 4569 19bc 06cf 6dbd
00000210: 53cb 903d 6e63 fe3d d7da 923d c4f8 63bd
00000220: 46cc d43d 47cd 563c ead1 973d 834e 9f3d
00000230: 9484 c63d e41c a5bd e59e 0f3b 4f46 64bd
00000240: a151 8c3c 649c 813d ee07 b43b 4cc8 233d
00000250: 7717 e53d 0e2c 443c 6827 bfbd 7944 e73c
00000260: f0c7 c4bc 3bf3 8e3d a56e 833d 6c8b 52bd
00000270: f1ad 3a3d 1611 47bd f6c8 89bd 18e0 913b
00000280: 1a9a b8bd 8509 1e3c cff5 a03d 41cb 843c
00000290: c482 bd3d 62ae a0bc 9013 94bc a88c c73d
000002a0: f06a 253d 3446 193c 6abb 39bd 4895 bd3d
000002b0: 4b1e 453d 5fa6 28bc 444b ca3d 487a 033d
000002c0: 38b5 dc3c 6106 b23d 3768 9cbc acd6 bcbd
000002d0: 9830 98bc 559f 8e3d 9b4d 84bd 7e3f 5cbd
000002e0: 7775 d5bc 712d b13d 0da5 88ba affd 92bd
000002f0: 6591 38bd 6171 1dbc d31a c2bd c8c7 aabd
00000300: f454 5bbd 84a8 0dbd de2a bc3d 0b0c 51bd
00000310: f8ec a13d b55e a3bd 22c6 bb3d 0479 d93b
00000320: fb90 ce3b 458a d1bd 57b6 4d3d 5a23 efbd
00000330: 7750 2cbc 3a8e aa3d ac96 b53c 35c9 bbbd
00000340: 1aa6 07bd f433 dabd aaa8 443c 83d8 923d
00000350: 55e3 21bd 1266 393d 8726 26bd 204a 0fbc
00000360: 5495 ae3d 16b5 14bd ef65 96bd d1ca a03d
00000370: 6a9f e83c 455f f53d 34d6 783d 196d 8f3d
00000380: aa46 573d c13d 37bc c227 ddbd 215d fbbd
00000390: 242e 04be d129 9e3c 5d0b 563d a57a 5d3d
000003a0: 7598 bfbd c4ee debc 3de8 9abc 3b57 83bd
000003b0: a9a9 7a3c d653 acbb 855c 993c d8cc ac3d
000003c0: 76ab ca3d cc7d 2dbd 1f3b 583d ed74 85bd
000003d0: 6c24 91bd 911d c43d 4e39 353d 2f9c a03d
000003e0: e721 5b3d 5ab2 723d ff5d 00bd fea5 5cbd
000003f0: 50de 6d3b ae3e fdbd 8ad3 d0bd 2598 56bd
-0.004906765 0.10089031 0.01862674 0.08591258 0.081221044 0.008159715 -0.008118054 -0.024532445
0.0012610152 0.020807577 -0.09000054 0.05771001 0.09359188 0.085169494 -0.07263021 0.021074995
-0.10064773 0.039307654 0.023368595 -0.090633206 0.028934838 -0.07099532 -0.12378306 0.049673714
0.042670857 0.10658769 0.009829436 0.015968738 0.018410562 -0.014579785 -0.03440175 -0.012726591
-0.05839501 0.03601818 0.056438364 -0.004746262 -0.055255126 0.028219832 -0.03650016 -0.054899275
0.005965614 -0.11099994 -0.08889087 -0.063844815 0.0117707765 0.057641666 -0.07172326 -0.13197948
0.031024583 -0.08511576 -0.043832522 0.119185634 0.07316705 0.0009581435 -0.032162648 -0.021910928
0.017831413 0.094874814 0.051490482 -0.05379685 -0.005552348 -0.09247084 0.027844299 0.092641026
-0.056262888 -0.07009097 0.08448605 -0.00636426 -0.063343644 -0.08993508 -0.0042955237 -0.010690504
-0.11066885 -0.10615768 -0.08115197 0.08828993 -0.0014823346 -0.037471037 0.12385888 -0.051440187
0.09962441 0.108597144 0.089153446 -0.03566482 0.06620686 -0.05814622 -0.020197619 -0.019066783
-0.09371241 0.027882598 -0.08549106 -0.0023146607 0.056363117 0.0022757174 -0.06675244 0.018725147
0.0681057 -0.07733943 0.034687653 0.050009605 -0.09195932 0.0022221098 0.105055146 -0.030963274
-0.030135637 -0.06555789 -0.07564476 -0.06030219 0.058150504 -0.053709965 0.07803817 -0.063377745
0.095266335 0.0009849134 0.10416937 -0.0043306868 0.081174314 0.039356273 0.048505817 -0.0465827
-0.09215501 -0.078957096 -0.057727512 0.03601036 0.043360215 -0.054000244 -0.035263956 0.07109795
0.07678623 0.033723336 -0.009363477 -0.05805876 0.07070031 0.124213085 0.07170647 -0.055657163
0.103905246 0.013110465 0.07413085 0.07778647 0.09693256 -0.08062151 0.0021914777 -0.055731114
0.017128767 0.06328657 0.0054941094 0.03998594 0.11186116 0.011973394 -0.09333688 0.028230892
-0.024021119 0.06979986 0.06417588 -0.051402494 0.04557604 -0.04860028 -0.067277834 0.004451763
-0.090137675 0.009645824 0.07859384 0.0162102 0.09253457 -0.019614402 -0.018075734 0.09743625
0.040385187 0.009355117 -0.045344748 0.09256989 0.048124593 -0.010293572 0.09877637 0.03209904
0.02694188 0.08692623 -0.019092662 -0.09220633 -0.018577859 0.06963984 -0.064601146 -0.05377149
-0.026056988 0.086512454 -0.0010425166 -0.071772926 -0.045060534 -0.009609551 -0.094777726 -0.083388865
-0.053547814 -0.034584537 0.09187864 -0.051036876 0.07906526 -0.07977048 0.0916865 0.0066367406
0.006303904 -0.10231451 0.05022272 -0.11676665 -0.010517231 0.08327909 0.022166573 -0.091692366
-0.03311739 -0.106544405 0.012003103 0.071702026 -0.03952344 0.045263357 -0.040564086 -0.0087457
0.08524576 -0.03630551 -0.07343661 0.07851184 0.028396327 0.11981062 0.060751155 0.070032306
0.052557625 -0.011184157 -0.10798599 -0.12273622 -0.12908226 0.019307049 0.05225693 0.05407204
-0.09355251 -0.027213462 -0.018909568 -0.06413122 0.015299239 -0.0052590175 0.018720875 0.08437508
0.09895985 -0.042356297 0.052790757 -0.065164424 -0.07087025 0.09575952 0.044244103 0.0784229
0.05349913 0.05925212 -0.03133964 -0.05386924 0.0036295839 -0.12365471 -0.10196598 -0.05239119

bias f4 [16]
00000000: f926 4c3d fd5b 983d d22c 89bd 40b7 5abd
00000010: 9fc8 933d aa48 acbb 57c4 9dbd 4b21 1bbe
00000020: 873c 8cbd e29d a13c fa84 023a d48e 93bd
00000030: 3f57 ce3d 93d9 123e 5ffb 2f3c 9e98 1ebd
0.049841855 0.0743942 -0.06698002 -0.053397417 0.07216 -0.0052576857 -0.077034645 -0.15149419
-0.06847482 0.019728605 0.00049789215 -0.07204977 0.100752346 0.1434081 0.010741084 -0.038719766

weight f4 [16]
00000000: c6d7 823f 8054 7d3f 430e 853f 6787 783f
00000010: 8e8d 783f f57c 813f 60e3 813f b639 823f
00000020: e28f 813f 4916 7a3f 2fe2 7a3f d9a4 833f
00000030: d4e4 743f 6384 793f c8eb 7e3f 1769 793f
1.0222099 0.9895706 1.0394977 0.9708161 0.97090995 1.0116259 1.0147514 1.0173862
1.0122035 0.97690254 0.9800138 1.0284683 0.95661664 0.9746763 0.99578524 0.9742598

bias f4 [16]
00000000: 163e 763d 052a 92bc 7493 9dbc 91a0 103d
00000010: 1c03 7f3d 89e8 ce3c efe0 2fbc 209e a1bd
00000020: 9083 34bc 0acf b93d 758f b03d 8c61 52bb
00000030: 4bfa c73d 491a 2b3c 29c5 053e b995 373c
0.060117804 -0.017842302 -0.01923535 0.035309378 0.062258825 0.025257366 -0.010734781 -0.07891488
-0.011017695 0.09072693 0.08621112 -0.00321016 0.097645365 0.010443279 0.13063492 0.01120513

running_mean f4 [16]
00000000: 52f7 9b3c 2103 893e b9e3 903b 1dda 813e
00000010: 102a c93d f911 1139 27e3 9b38 b718 623b
00000020: 3d14 103a 0e6d 933d 1fa2 da3c 335d dd3a
00000030: 44fb ec3d 62d4 a13e e69a ed3a 789e 043e
0.01903883 0.267602 0.004421678 0.2536172 0.09822476 0.00013834973 7.4332864e-05 0.0034499594
0.000549618 0.07198535 0.026688633 0.0016888737 0.115713626 0.31607348 0.0018127828 0.12951076

running_var f4 [16]
00000000: 9b54 8e3a b283 3e3d 0725 d93a 1a04 cb3d
00000010: 167a 483c 0dc3 8237 f607 3837 6441 913a
00000020: af79 8d38 7605 9b3b 964d e23a e4ad f839
00000030: 62be 6f3a fa49 153d 6173 5438 5c47 e83c
0.0010858955 0.046512313 0.0016566821 0.09912892 0.012236139 1.5588035e-05 1.0969108e-05 0.001108211
6.746069e-05 0.0047308756 0.0017265554 0.00047431805 0.0009145496 0.036447503 5.0652194e-05 0.02835434

weight f4 [16, 16, 5, 5]
00000000: 4b2a f6bc a64a efbc c181 abbd 629a b9bd
00000010: f059 99bd 7f92 bc3c 844f 0739 66c7 21bd
00000020: 0e99 b3bd bd69 093c 7b68 cabc 09db 8fbc
00000030: 2642 7fbd 79c8 c0bd 0004 e4bc 4f20 0fbd
00000040: db2c 483b e32a e03c 22f6 81bb 5a97 9f3c
00000050: 401f 56bd bc64 acbc b96c 303b f6fd 4c3c
00000060: 48c2 8c3d 7ef8 4cbc afef d33c f1ea 2fbd
00000070: 9805 3e3d a2be 013d aa18 9ebc 9847 f53c
00000080: 0f15 cbbc 357f 33bc 44b7 213d dea4 0e3d
00000090: 7d81 ee3c 26f5 09bd 4d99 ecbc da12 363a
000000a0: 4b17 343d 05a0 23bd e762 40bd 404f 35bd
000000b0: d257 30bd 94d3 17bd ce00 36bc c176 e4bc
000000c0: 0e35 0e3d 4c92 183d ba8d d3bb fade abbc
000000d0: 529b fe3c 31bd bbbc 38f4 523d 25f3 7f3d
000000e0: 42e0 82bc 012e 3cbd acda 093d 695e 083d
000000f0: 8f59 913d 06d1 10bd f5ba 3fbd c24b a53b
00000100: a3c0 d63c b05d 1c3d 2c7a e73a 11d0 21b9
00000110: 137c 05bd d51c 28bd 8f77 56bc 23a4 43bd
00000120: 6893 00bd 87f2 09bd a6b8 783c 91bb 563b
00000130: cd6f 7ebc f0f0 3d3b 812e 21bd 2002 2d3c
00000140: 3653 2c3d 0cf3 f439 0212 a43b 9ded fe3c
00000150: a577 2c3d 78b2 a63c 1de7 31bd 4e18 1139
00000160: 6751 8e3c ca1b 13bd 1938 0dbd b335 143d
00000170: 3d20 e43c 0662 dd3b fdc3 003d 0a88 0d3d
00000180: 02a1 273d 1d56 3bbd 70e8 b2bc dfd1 303d
00000190: 11b4 2b3d 0f7d c83c 9f45 513c ac8d 23bc
000001a0: a695 e73c ec54 b3bb 89fc f53c 5887 0fbd
000001b0: 344f ff3c 90f3 633c 6f75 793d 3774 ca3b
000001c0: 0205 ca3c 768f c5bc 6ba0 aa3b f768 a93c
000001d0: 97e4 8f3d 7a91 61bc 25ef f43c fd7f 3d3d
000001e0: e7fe 443d 725a 253d 7857 68bc bf20 e7bc
000001f0: 47d4 69bc 17fd 503d 93b4 9abc af36 4bbc
00000200: b69a 82bd b9ee adbd cf7e db3c cf9c 37bd
00000210: 774e 98bc 2026 c6bc 5fd1 533b 18ae b53d
00000220: d073 e23c d653 ffbc d6ad 62bd d8fd e43c
00000230: 0cdd 003b 6f5a e73b 89c6 45bd e204 d73c
00000240: ea2e c53c 562b 303d 2ffa 66bc 6acc 733c
00000250: 134b df3c 262b 3e3d ffe0 303d b153 c13c
00000260: de20 e73c bdb6 d13b 7f62 9a3d 428e 873c
00000270: ad8f 0cbd 1443 213c 35e7 f7bc ee82 243d
00000280: 9352 c23c e359 b63c 9ed2 77bc 8442 0abd
00000290: 6190 223c 69a4 953b 5571 f6b8 fd84 2dbd
000002a0: c079 f1bc 38a6 083d 4480 3bbc f8b8 f6bc
000002b0: 9066 433c 184e c8bc cbfd 143d 67d3 cb3a
000002c0: 35a1 32bd 70c7 84bd d19a 723c f196 4ebc
000002d0: d5da b23c 8081 0ebd 5d54 8aba a3e3 eabb
000002e0: 4312 b83c 073f bc3c e8f6 ad3c 666d e8bb
000002f0: fe6c aebc d358 5abd e969 d3bc 11cb 333d
00000300: 5975 d63c 266b 053d c82a 373c c39a 4f3d
00000310: 0f01 c8bc deea 2e3d 022a 213c 8294 71bd
00000320: a583 023d e7e0 3f3d d696 ad39 0340 0cbd
00000330: 4a7b e9bc 6afe 763d 3b7e 143d acea 43ba
00000340: ea6b 57bd 375e cfbc a423 7cba ede0 833d
00000350: 5cb2 18bd 5ded 4ebd 27e4 0bbd 2822 f13c
00000360: cdd1 923c 3764 103c 4628 48bd b770 7c3c
00000370: 27f3 21bc 5f84 afbc bc6b 06bb 8c22 b3bc
00000380: 8309 77bd b43e afbc cd0e 2fbd e43f c2bc
00000390: c642 913c 3e65 4bbd a4d9 e1bc d5d5 77bc
000003a0: 085c 34bd 8193 633b be3a 37bd 07b1 c13b
000003b0: 795f 87bb 4d7c 6fbc f323 f43b ed4d cb3c
000003c0: b69f 6c3d dace 3e3c dcd2 11bd c85a 08bc
000003d0: c865 19bd 7771 e6ba 14fb dd3c c520 27bd
000003e0: f366 50bc ba12 4bbd 1158 233d 2fa9 8c3c
000003f0: 89f3 63bd 9bca 38bc 0da5 b23c 40b0 e7bc
-0.030049464 -0.0292104 -0.08374358 -0.09062649 -0.07487857 0.023019074 0.00012904225 -0.0394968
-0.08769427 0.008387026 -0.024708023 -0.017560499 -0.062318943 -0.09413237 -0.027833939 -0.03494292
0.0030544314 0.0273642 -0.003966109 0.01948135 -0.052275896 -0.021044128 0.0026920273 0.012511721
0.06872994 -0.012510417 0.025871126 -0.042948667 0.046392053 0.031675942 -0.01929887 0.029941365
-0.024790315 -0.0109556215 0.039481416 0.0348252 0.02911448 -0.033681057 -0.028881693 0.0006945558
0.043967526 -0.03994753 -0.04696932 -0.04426503 -0.043052502 -0.03706701 -0.01110859 -0.027888658
0.034718566 0.037248895 -0.006456104 -0.020980347 0.031079922 -0.022917362 0.051502436 0.06248774
-0.015976075 -0.04594231 0.033655807 0.03329316 0.0709716 -0.03535559 -0.046809155 0.0050444314
0.026214903 0.038175285 0.0017660311 -0.00015431667 -0.03258903 -0.04104312 -0.013090028 -0.047763955
-0.031390578 -0.033678558 0.015180742 0.0032765607 -0.015529585 0.0028982721 -0.03935099 0.010559589
0.042071544 0.0004672039 0.0050070295 0.031119162 0.04210629 0.020348772 -0.043433297 0.00013837332
0.0173728 -0.035915174 -0.034477327 0.036184024 0.027847404 0.00675607 0.03143691 0.034553565
0.040925033 -0.04573642 -0.02183935 0.0431689 0.04191977 0.024473695 0.012772947 -0.009982508
0.0282696 -0.00547277 0.030027645 -0.035041183 0.031165697 0.01391305 0.06090301 0.0061784047
0.024660591 -0.024116259 0.0052071116 0.020679934 0.07026022 -0.0137675945 0.02989919 0.046264637
0.048094656 0.04036946 -0.01418101 -0.028213857 -0.014271802 0.051022615 -0.018884933 -0.012403174
-0.06377165 -0.08492798 0.026793865 -0.04482728 -0.018592102 -0.024188101 0.003232084 0.088710964
0.027643114 -0.031167906 -0.055341564 0.027953073 0.0019663004 0.007060341 -0.04828504 0.026247445
0.024070222 0.04301008 -0.014097734 0.014880279 0.027257478 0.04642787 0.043183323 0.023599477
0.028213914 0.006399958 0.07538318 0.016547326 -0.034316707 0.009842653 -0.030261615 0.040163927
0.023721015 0.022259658 -0.015125899 -0.03375484 0.009922118 0.0045667184 -0.00011751304 -0.042363156
-0.029477 0.033361644 -0.011444155 -0.030117497 0.011926308 -0.0244513 0.03637485 0.0015550674
-0.04361077 -0.06483352 0.014807419 -0.012609229 0.021832863 -0.03479147 -0.0010553707 -0.0071682497
0.022469645 0.022979273 0.021235898 -0.0070931194 -0.021292206 -0.053307366 -0.025807338 0.04389483
0.026179003 0.032572888 0.011179633 0.0506847 -0.024414567 0.042704456 0.009836676 -0.05897952
0.031863827 0.046845343 0.00033109513 -0.034240734 -0.028501172 0.060301222 0.036253195 -0.00074736285
-0.05259315 -0.02531348 -0.0009618348 0.064393856 -0.03727947 -0.050519336 -0.03415313 0.029435232
0.017922306 0.008812956 -0.048866533 0.015407733 -0.009884632 -0.021425424 -0.0020510992 -0.02186706
-0.060311805 -0.021392204 -0.042738724 -0.023712106 0.017732035 -0.0496571 -0.0275696 -0.015126665
-0.04403308 0.003472537 -0.044733755 0.005910996 -0.0041312543 -0.014617038 0.0074505745 0.024817431
0.0577695 0.011645997 -0.03560148 -0.008322425 -0.03745058 -0.0017581423 0.027097262 -0.040802736
-0.0127198575 -0.049578406 0.03987891 0.017170517 -0.055652175 -0.011278774 0.021807218 -0.028282285

bias f4 [16]
00000000: ca83 a83c e691 87bd ac1a 10be 995b 37bd
00000010: e82c 703c 183b aebc f17b aa3b a8ea cdbd
00000020: e058 87bd e15d 61bd f3bb acbd d1ad 5bbc
00000030: fe27 93bd 5d86 a0ba 41a1 f2bc 09d4 0e3d
0.020570654 -0.06619625 -0.14072675 -0.04476509 0.014659144 -0.021268412 0.0052027632 -0.10054523
-0.066087484 -0.05502117 -0.08434286 -0.01340814 -0.07185362 -0.0012247075 -0.029617907 0.03487018

weight f4 [16]
00000000: f2ad 803f 7872 7f3f f310 823f 1fa9 7a3f
00000010: e62b 773f 2e14 793f b71b 733f 4ff4 7b3f
00000020: 29ee 7b3f 54fc 803f 61b8 813f d060 7f3f
00000030: 9e89 7e3f 71e8 7c3f 67bf 813f 48d3 753f
1.0053084 0.9978404 1.0161422 0.9791431 0.9655136 0.97296417 0.94964164 0.9841966
0.9841028 1.0077004 1.0134393 0.997571 0.9942874 0.9879218 1.0136536 0.96025515

bias f4 [16]
00000000: e9d1 713d 1da5 733d f904 753d fe5d dabd
00000010: 3fa3 203e 521b 183e 9f4d fa3d 4f3a bd3d
00000020: 0084 ebbb d864 c6bd f762 903d 9aaf 1e3e
00000030: ad78 413d 998a d93d cfae 953d 6b62 fd3d
0.059038077 0.059483636 0.059819195 -0.10662459 0.15687273 0.14854172 0.12221836 0.09239637
-0.0071873665 -0.09687203 0.07050126 0.15496674 0.047234226 0.106221385 0.07308733 0.12372287

running_mean f4 [16]
00000000: 74eb b43d a36f 0b3e a2ff 4d3d 2d71 073e
00000010: 5b4f 323e 92f2 a03e 79db f43e 5d13 ac3d
00000020: 642f 9d3d 1e74 373e 5eb5 d93d 5414 743d
00000030: 971c 763d 9a57 c23d dba7 903d bcd8 153e
0.088339716 0.13616805 0.05029262 0.13226767 0.17413084 0.31435066 0.47823694 0.08402131
0.07675055 0.17915389 0.10630296 0.0595897 0.06008586 0.09489365 0.07063266 0.14633459

running_var f4 [16]
00000000: a251 903e b6f6 303e 70fb 103e b3bc a63f
00000010: a2c9 bf3e e714 0d3e 6237 983f 855e 143e
00000020: 1535 513e 0b77 ed3f 8db4 6d3f f49d 273e
00000030: 21c6 a53e 7697 8b3e 645d 203e 170e 563f
0.2818728 0.17281613 0.14158416 1.3026336 0.3745852 0.13777505 1.1891901 0.14489181
0.20430405 1.8551954 0.92853624 0.16368848 0.32377723 0.27263993 0.15660626 0.8361525

weight f4 [16, 16, 5, 5]
00000000: 3f08 1c3b 0880 5cbb 8f05 5ebd e75c e0bc
00000010: e3fc d3bc fdf5 aa3c eea6 f13c d28c dcbc
00000020: 122b 93bc 7354 a0bc eb07 7abd a2ce e13a
00000030: 159d 003d 4bd2 6e3c 89ce 28bb 3c94 96bd
00000040: 3412 e4bb 1171 f93c ee6d 5a3d 8523 583d
00000050: 68de 36bd e7d2 10bd ef9d f33c 4a79 1d3d
00000060: 42c0 d9bb 6169 9cbd 0860 dfbb 6815 00bd
00000070: 8a98 84bc 7abc 4cbc 64ec babc 08dd 42bc
00000080: 1e70 69bd 7b9e 6bbd 3792 febc d4db 03bd
00000090: 8328 393c fa00 6ebd 1bdb 8dbd c112 68bd
000000a0: 705f 89bc a604 413c dbbc 6ebd 5f4f 25bd
000000b0: be23 d4bc 4656 e73c 30ce 1e3c ca16 aa3c
000000c0: 83b2 0ebd dfe0 bdbc 9979 5cbb 579a a1bd
000000d0: 334b 91bd 178d 44bd 277f 74bc 26da 91bd
000000e0: 97db 26bd ed25 1abc 9db4 c9bc fa01 21bc
000000f0: a083 2cbd bfc7 b7bd ee76 8ebc 368f bfbc
00000100: 3290 93bc bf20 77bc e673 88bd 25b8 1fb9
00000110: 8089 cd3c 95e8 493c d60e 8abd e814 0dbc
00000120: 3d21 0ebd 4462 ba3c c04b 943d 76fd 8a3c
00000130: 1f23 28bc 88b8 9fbc 0163 dfbc 7724 acbd
00000140: 6bcc dbbc 4750 333b b735 e4bc 3239 173d
00000150: cfba eb3c fcee 17bd 6348 963b 07cb 2e3d
00000160: a6a6 5c3d d602 ee3c 0bc1 8bbc 73fc 113d
00000170: fa6f 65bc 2bf8 b73c 3c95 fc3c 73c4 65bc
00000180: 49ff edbc 4af3 2d3c 2691 c43b a4bd 983c
00000190: d860 bcbc d49b 40bd 9f8f d2ba b038 fe3c
000001a0: 0fda 173c 148a 9abd 2c4e 94bd 160d babc
000001b0: de9b fcbc d9ab cf3c 1758 2e3c a5d3 59bb
000001c0: 515b 7a3c 54ec 71bd 8d44 8bbb d3db 00bd
000001d0: 4b7b 49bd 0f78 6cbc 3e47 4ebd b3e4 debc
000001e0: 6175 3abd e8d1 cdbb 2d04 9d3c e116 43bd
000001f0: 7dd2 68bd cf21 21bb ceee 55bc 200d 083d
00000200: e5a7 c2ba 8799 81bc 35fc 77bc fd3b 79bd
00000210: 7a7f 19bd acb6 103d 9632 8fbc 9025 bbbc
00000220: c25f 5bbd 6d13 033c ed60 32bd a12b 033c
00000230: 8c0e 65bb 4c20 7ebd 0281 63bb bd64 8bba
00000240: 43fe 9b3c d11b 163d 705d febc 0103 3dbd
00000250: 90d0 28bd a206 50bd 50dd 5f3c e813 75bd
00000260: 9a62 6cbd cd4d 143c ecd7 8ebd 0170 32bd
00000270: 5b06 44bd 856c 153c fb51 c13b a651 1e3d
00000280: 5d94 8cbc a220 2a3a 9274 363c 104b 00bd
00000290: 9c94 11bc 8200 843c ad11 fabc e5aa c13c
000002a0: 12a4 e03c 4f27 96bc ca70 9cbd 5737 a13c
000002b0: 238b fc3c 056d dfbc 7b14 6ebd 7214 2f3a
000002c0: 621d 823c bec5 9dbb 01fc 803c 158d 103c
000002d0: fce1 7f3c 33cf cebb 3e60 083d 880c 5e3c
000002e0: ca8e dcbb a365 d33c f93e 3ebc b29c b83c
000002f0: e57c 973c bbed dc3c 41c8 1bbd 2b8c f8bc
00000300: dd79 6ebc ed09 4c3c 4775 723d 8eb6 63bd
00000310: 16b1 15bc bb6f d6bc fb92 2ebd bf3d 01bb
00000320: d37d 233d 11f2 c2bc 36c0 df3b 6663 59bd
00000330: 59d4 273c b978 2dbd 00b4 473b 1bd7 e43c
00000340: e5ab 283c 98c4 44bd 43df d53b 2ec7 023d
00000350: 1d53 e73c d2d7 2b3c 0f46 82bc 0c74 61bc
00000360: 9878 32bd 5ea6 85bd c998 6bbd c65e 25bb
00000370: eddb 823c 5c85 8cbd 0649 eebc c264 4e3c
00000380: bb18 3f3b d780 05bd d991 20bd b9b6 f73c
00000390: 7621 44bd 33b1 78bd b452 34bb 4d79 433d
000003a0: 1726 673d 3b38 2d3c e4aa e0bb 7983 8abd
000003b0: 6d47 173c 976d 8f3d e3fb 9d3d 3f69 2a3d
000003c0: 0b6f dbbb 5ac6 d73c 4d9a a73d 0c3d bb3d
000003d0: 137d 8c3d 0e6e 053b 38d6 b1bc 8250 493d
000003e0: 6fca 153d 5569 083d d848 ff3c b13d e2bc
000003f0: 8924 afbc 0fca 433d 4821 383c 21c0 8fba
0.0023808626 -0.0033645649 -0.05420452 -0.02738805 -0.025877422 0.02086925 0.029498544 -0.026922617
-0.017964873 -0.019571519 -0.061042707 0.0017227719 0.031399805 0.014576505 -0.002575787 -0.07352492
-0.006960178 0.030449422 0.053327493 0.05276825 -0.044645697 -0.035357382 0.029738395 0.03844575
-0.0066452334 -0.07637287 -0.0068168677 -0.031270415 -0.016186018 -0.012496108 -0.022817798 -0.011893518
-0.05699169 -0.057524186 -0.03107558 -0.032192066 0.011301163 -0.0581064 -0.06926557 -0.05665851
-0.016769141 0.011780893 -0.058285575 -0.040358897 -0.02589595 0.02823938 0.009692714 0.02076282
-0.03483821 -0.023178516 -0.0033641814 -0.07890766 -0.07094421 -0.047986116 -0.014922894 -0.07121687
-0.04073676 -0.009408456 -0.024622256 -0.009827131 -0.042117715 -0.089736454 -0.017390694 -0.023383718
-0.018013094 -0.015083491 -0.06662731 -0.00015232021 0.02508998 0.012323518 -0.06741111 -0.0086109415
-0.034699667 0.022751935 0.07241011 0.016966563 -0.01026228 -0.019497171 -0.027268888 -0.084053926
-0.026830873 0.0027361081 -0.027857644 0.03691978 0.0287756 -0.037093148 0.004586266 0.04267409
0.053869866 0.029054087 -0.017059823 0.035641145 -0.014003748 0.022457203 0.03083288 -0.014023888
-0.029052394 0.010617087 0.0059987484 0.018645115 -0.022995397 -0.04702361 -0.0016064531 0.03103289
0.009268298 -0.075458676 -0.072414726 -0.022711318 -0.030836042 0.025350498 0.010641119 -0.0033237722
0.015280561 -0.05906327 -0.0042501152 -0.03145964 -0.049189847 -0.014432921 -0.05036091 -0.027208662
-0.045522097 -0.0062811263 0.01916703 -0.04762924 -0.056841362 -0.0024586802 -0.013057424 0.033215642
-0.0014851062 -0.015820278 -0.015135814 -0.060848225 -0.037475087 0.03533046 -0.017480176 -0.02284506
-0.05355812 0.008000237 -0.043549467 0.008006007 -0.0034951298 -0.06204252 -0.0034714346 -0.0010634881
0.01904214 0.03664762 -0.031050414 -0.046145443 -0.041214526 -0.050787576 0.013663605 -0.059833437
-0.05771122 0.009051752 -0.069747776 -0.043563846 -0.047857624 0.009120111 0.0058996654 0.038652085
-0.017160589 0.0006489848 0.011136191 -0.031321585 -0.008885529 0.016113523 -0.030526007 0.02364106
0.027421985 -0.01832929 -0.076387 0.019679708 0.030828064 -0.027273664 -0.058125 0.0006678767
0.015883151 -0.0048148325 0.015745165 0.008822699 0.015617844 -0.006311321 0.03329491 0.013552792
-0.006730889 0.0258053 -0.011611694 0.022535656 0.018492172 0.026968827 -0.038032774 -0.030340275
-0.014555422 0.012453538 0.059193876 -0.05559402 -0.009136459 -0.026176324 -0.04262064 -0.0019720641
0.039914917 -0.023797067 0.0068283333 -0.05307331 0.010243499 -0.04235146 0.0030472279 0.027934602
0.010294889 -0.04803905 0.006526859 0.031928234 0.028237874 0.010488467 -0.015902547 -0.013760578
-0.04357204 -0.06525873 -0.057518754 -0.0025233491 0.01597401 -0.06861374 -0.029087555 0.012597265
0.0029159028 -0.032593574 -0.03920159 0.030238496 -0.047883473 -0.060715865 -0.0027515115 0.047723103
0.05643281 0.010572488 -0.0068563092 -0.06763358 0.009233338 0.070033245 0.07714059 0.041604277
-0.006696587 0.026339699 0.081837274 0.09142503 0.068597935 0.0020359787 -0.021708593 0.049149044
0.03657001 0.033303577 0.031162664 -0.027617307 -0.021379726 0.04780012 0.011238404 -0.0010967293

bias f4 [16]
00000000: 7620 86bd f6d9 b2bd 253b adbd ea8f e8bd
00000010: 9859 f4bc 63bf 75bd c3e0 57bd 0968 fa3c
00000020: a605 7a3b 6e90 c5bd 0f49 bbbd fcd4 93bd
00000030: 3920 5fbd b509 febd faf5 fd3c 2db7 a33b
-0.0654916 -0.08732979 -0.084585465 -0.113555744 -0.029827878 -0.059996974 -0.052704584 0.030567186
0.003815034 -0.096466884 -0.09144794 -0.07218358 -0.05447409 -0.12404195 0.03100108 0.0049962015

weight f4 [16]
00000000: 2da6 843f 4be8 823f 7a34 803f f1d9 843f
00000010: 3dba 7b3f fab7 7c3f 6561 713f 067f 7d3f
00000020: 2dec 793f edc8 7a3f 7c00 823f 5b83 803f
00000030: 3aa0 793f d7be 823f 61b1 7a3f 5076 723f
1.0363213 1.022714 1.0016015 1.037901 0.9833105 0.98718226 0.9428924 0.9902195
0.97626 0.9796284 1.0156398 1.0040087 0.9751011 1.021449 0.9792691 0.9471178

bias f4 [16]
00000000: 5c4e 96bd 4157 bc3d 6e5c c2bd 1d75 e23d
00000010: 138d 843d bc1c b2bd 4710 913d 266b 69bd
00000020: a38d 63bd b50b 0c3d 43ef c73d 73b8 26bd
00000030: dcf4 e23d 64da ff3d ab99 96bd 3c23 be3d
-0.073391646 0.0919633 -0.09490286 0.11057494 0.0647222 -0.08696887 0.07083183 -0.05698695
-0.055554997 0.034190852 0.097624324 -0.04070325 0.110818595 0.124928266 -0.073535286 0.09284064

running_mean f4 [16]
00000000: 1a28 133d e192 d33d 6c45 9a3d 82d9 033c
00000010: d9da 7b3d 5684 f23c 8917 983d 1a39 d33d
00000020: 260f 243d 0c02 523c 514a 193d 3d3a 533c
00000030: e89a b83d 1534 2c3c 3b78 473e 41a4 463f
0.035926916 0.10330749 0.075327724 0.008047463 0.061488006 0.029604118 0.07426364 0.10313626
0.04005351 0.012817871 0.03742439 0.012892303 0.09013921 0.010510464 0.19479458 0.7759438

running_var f4 [16]
00000000: 3fcb 693d 310b f33d 2b54 8a3e 753e 5d3c
00000010: 6283 803e a1b6 dd3c 4f46 8e3e ecde fc3d
00000020: 281a b23d 08a5 b13c 386c 963d 7c15 aa3c
00000030: 3f17 b73d 41d1 603c 53eb 563e 1017 de3f
0.057078596 0.11867369 0.2701734 0.01350366 0.25100237 0.027064623 0.27788016 0.123472065
0.08696395 0.021685138 0.0734486 0.020762198 0.08939981 0.013721765 0.20988207 1.7350788

weight f4 [16, 16, 5, 5]
00000000: f89d 58bd 65aa 46ba 4d0d 92bb c5ee 44bd
00000010: 7350 8ebc 06d8 f13c 4c95 afbc 7ac2 02bc
00000020: e68e 3dbd 21bd e5bc 4b0c a9ba bed5 76bc
00000030: 6483 d13c 1b41 9bbc 0f18 213b ae21 cdbc
00000040: 47b6 8bbc 9dc7 1dbd 2590 003c 7621 1dbd
00000050: 1997 0fbd 50ce 28bd a93d ca3c b7af 3cbd
00000060: 5bdc 8abd 6161 7e3d e580 2e3d 0b60 413d
00000070: 7037 8c3c 5f19 9e3c 8344 5b3d ed83 06bd
00000080: b0ea 23bd 2239 583d fe7a c8bb 9e75 d1bc
00000090: 0691 343d 9594 99bc 0cb4 e7bc 45d5 17bb
000000a0: 7bc3 ea3c f83d ad3c 6a5e 0a3d ec2a 153c
000000b0: 84db 163d 04b9 163b 35b0 4d3d fd19 01bd
000000c0: 1385 3a3c 40c3 0b3d fb6e 243b 0900 7b3b
000000d0: 5ad3 5eba 8cfe 4f3c 92a6 bcbc 868e 45bd
000000e0: 72b3 12bd 5a44 0c3c 7efe e4bc 02d3 c8ba
000000f0: d395 773c 2608 6b3c 0df7 da39 2b4c 1fbd
00000100: e66a 0dbd 2f51 133d 79b2 bebb 5b24 debc
00000110: 55db 143b d563 0dbd 484e 6ebd e82e 2abc
00000120: 4bd8 0bbb ca5e f9bc b82f a0bc baac 513d
00000130: fbc2 dcbb fb00 05bd 4d71 08bc 3533 463d
00000140: 04b1 79bd e74d 253c 64fc b33c 2eb2 4e3d
00000150: 6d27 51bc c27a a6bc 4726 b93d c5fd 5cbd
00000160: 4a52 82bd 7687 a53d d701 8cbc a358 80bc
00000170: 4490 88bc edc4 153d c55d 8ebd f5c6 74bd
00000180: 40be c13d d7a1 89bd 1860 853c d3f6 a43d
00000190: 1b66 623c 4823 4c3d 7d75 e83a 50b2 043d
000001a0: 037c a43c 15b8 0b3d 6067 98bc 1623 3bbc
000001b0: 993b 853d be2b 403d e80a 2f3d b291 be3b
000001c0: da12 c7bc 7621 bbbc 32f8 383d 207f 743c
000001d0: c220 783c f75e 2c3d 4d59 da3c 3e46 743c
000001e0: 5541 333c 069e ad3c 301e 533c 51da 063d
000001f0: cae2 29ba 3d8d 0fbc 5451 683c 389a 693c
00000200: 4781 c7bc 86f6 9a3c a44f 00bd 0a8c 8dbc
00000210: e5af 67bd ec79 0ebd 07ec 37bd 4229 10bc
00000220: f08e e3bc bba4 3a3c 68cf 64bc bf71 d3bc
00000230: f8af f0bb 447f 6bbc c1ad c5ba 8b37 1bbc
00000240: e6d6 d2bc a3c8 57bd 1d41 35bd 1879 443b
00000250: c4d3 06bd c937 0fbd 92dc 2a3c c57d 77bc
00000260: 4a6c 8f3b 0aa0 973c 6c3a 803c 0c57 0f3c
00000270: 07cc 443d 34b6 9fbc cbb8 073b f34b 0f3d
00000280: 1950 cf3c 0f0c bcbc c546 833d d0cb 82bc
00000290: 4248 d93c 34e3 85bc 917c b9bc 4aa2 eb3b
000002a0: bb30 423d 0ac9 873c abcc 6a3c c39c 9d3d
000002b0: 490a 913c 1be1 cdbc b4b4 4f3c 06bb d0bc
000002c0: f323 43bd 7241 023d 2d49 cb3c 386e 26bd
000002d0: f699 95bc c571 ba3c aaee 423c a5e5 5b3b
000002e0: 1f15 4f3c 92f3 23bb 92a8 f4bb 2c26 18bd
000002f0: e516 13b8 9a0f 5ebd c1a1 aabc aaff 1b3d
00000300: 4d80 d0bc 30ba 3d3d 2742 9abb 5523 433c
00000310: 764c 83bd 0ba2 3bbc 0dbc 3d3c 6f44 debc
00000320: 7072 3bbd f724 9ebc 35fb 94bd 7899 6ebc
00000330: 9d28 40bd 4ce1 80bd 12ed 303d 5cdd a43c
00000340: c67c 71bc 48a3 393b 42ba 5cbd 4e25 0fbd
00000350: 201a 8d3c 5ad6 a6bc 3ce9 76bd a5ce 433a
00000360: 4a24 a43c 1e51 25bd 1686 b93b 0f3c 073c
00000370: eab8 07bd ea47 16bc 4ea1 8d3c 5911 4fbd
00000380: 4ac3 1abd 7592 4c3d 06a6 27bd 78c8 813d
00000390: a04d 1bbb 42b6 f0bb 3406 143d ecc5 a1bc
000003a0: 0770 cb3c 4c50 5ebc 68dc a53d adab afbc
000003b0: a580 633d 3e85 58bc faa6 19bb 1376 013d
000003c0: 40fa 203b 8647 cbba 4435 b23c 86c2 e13c
000003d0: 9f60 e6bc 78ea e13c 5198 6d3d b7e0 f63c
000003e0: 6304 4abd 21be 4f3d b554 893d 9c27 8fbc
000003f0: 3c53 b23c 9b05 95bd e1d2 b83c 4e01 c9bc
-0.052885026 -0.00075784913 -0.004457152 -0.04807927 -0.017372346 0.029521953 -0.021433495 -0.007980937
-0.046278857 -0.028044285 -0.001289734 -0.015065609 0.025575347 -0.018951943 0.002458099 -0.025040474
-0.01705469 -0.038520444 0.007846867 -0.03836199 -0.035056207 -0.04121238 0.024687605 -0.046066012
-0.06780311 0.062104587 0.042603392 0.047210734 0.017116278 0.019299207 0.053532135 -0.032840658
-0.040018737 0.05278886 -0.0061181774 -0.02556878 0.044083618 -0.018747607 -0.028284095 -0.002316789
0.028657665 0.021147713 0.033781447 0.009104472 0.03683044 0.0022998461 0.050216872 -0.031518925
0.011384266 0.03412175 0.0025090564 0.0038299582 -0.0008500122 0.012694966 -0.023028646 -0.048231624
-0.035815664 0.008561218 -0.027953383 -0.0015321674 0.0151114045 0.014345204 0.00041764267 -0.038891
-0.034525774 0.035966095 -0.0058196154 -0.027116945 0.002271374 -0.034519035 -0.058180124 -0.01038716
-0.0021338637 -0.030440707 -0.019554004 0.051190116 -0.0067371107 -0.03247164 -0.008327794 0.04838868
-0.06095983 0.010089374 0.021970935 0.050462894 -0.0127657475 -0.020322207 0.09040504 -0.05395295
-0.06363352 0.08082478 -0.017090721 -0.015667265 -0.016670354 0.036564756 -0.06951479 -0.059760053
0.094601154 -0.067203216 0.016281173 0.080548905 0.013818289 0.049838334 0.001773521 0.032396615
0.020078665 0.0341111 -0.01860398 -0.011421939 0.06505508 0.046916716 0.04273501 0.005815708
-0.024300981 -0.022843104 0.045158572 0.014922887 0.015144529 0.042082753 0.02665391 0.014909325
0.010940869 0.021193516 0.012885615 0.032923046 -0.00064806326 -0.008761701 0.014179546 0.01425796
-0.024353636 0.01891638 -0.03132595 -0.01727869 -0.05656423 -0.034784243 -0.044902828 -0.008798899
-0.027778119 0.011391814 -0.013965465 -0.025811074 -0.007345196 -0.014373604 -0.001508169 -0.009473692
-0.025737237 -0.052681576 -0.04425155 0.0029979404 -0.0329168 -0.03496531 0.010428565 -0.015105669
0.0043769227 0.01850893 0.015652858 0.008748781 0.04804614 -0.01949606 0.002070951 0.03498454
0.025306748 -0.022954969 0.064099826 -0.015966326 0.026523713 -0.01634369 -0.022642406 0.007190977
0.047409754 0.016575355 0.014331023 0.076959155 0.0177051 -0.025131753 0.01267736 -0.025479805
-0.047641706 0.031800695 0.024815166 -0.040632457 -0.01826189 0.022759328 0.011897722 0.0033553627
0.012639313 -0.0025017005 -0.007466384 -0.03714578 -3.5068853e-05 -0.054214098 -0.020829083 0.038085617
-0.025451804 0.04632014 -0.004707593 0.011910279 -0.06411068 -0.011452208 0.011580479 -0.027132241
-0.045763433 -0.019304736 -0.072744764 -0.014562957 -0.04691373 -0.06292972 0.043194838 0.020125084
-0.014739221 0.0028326083 -0.053888567 -0.034947686 0.017224371 -0.020365883 -0.060281023 0.0007469452
0.020036835 -0.040360563 0.0056617362 0.008254065 -0.033135332 -0.009172419 0.01728883 -0.050553653
-0.0377839 0.04994436 -0.040929817 0.063370645 -0.002369739 -0.0073459456 0.03613873 -0.019747697
0.024833692 -0.013568949 0.0809868 -0.021444166 0.055542607 -0.013215361 -0.0023445473 0.031606745
0.0024563223 -0.0015508987 0.021753915 0.027558576 -0.028122244 0.027577624 0.05800659 0.03013645
-0.04932059 0.05071843 0.0670561 -0.017474942 0.021768205 -0.0727646 0.022561492 -0.024536755

bias f4 [16]
00000000: 6d2b 34bd fa1e 4ebd c88e 59bd 11de cabd
00000010: 7d1b d1bd ff9b 8abd 85de 07be dc46 eabd
00000020: 1b22 f73b 3d8f 8bbd 8cbb 2bbd 7317 da3b
00000030: ca5c 93bc 09fd d5bd 98c4 813c 2648 e13c
-0.043986727 -0.05032251 -0.053114682 -0.09905637 -0.10210321 -0.06768035 -0.13268478 -0.114392966
0.0075419075 -0.0681443 -0.041926906 0.0066556274 -0.017988581 -0.10448653 0.015840814 0.027500223

weight f4 [16]
00000000: 054d ab3f 42c9 ae3f 0027 ad3f ce75 b33f
00000010: 0821 bf3f ce74 a63f 849f a63f 8de6 af3f
00000020: e99a a03f 792f b23f c959 ab3f aec3 9c3f
00000030: 5d8f a03f 4fbc bc3f a77f a93f e538 ad3f
1.338288 1.3655169 1.3527527 1.4020326 1.4931955 1.3004396 1.301743 1.3742234
1.2547275 1.3920738 1.3386775 1.2247217 1.2543751 1.4744967 1.3242081 1.3532988

bias f4 [16]
00000000: 4279 113e 8cd4 143e 193f 133e 818a 0dbe
00000010: 4fc9 27be 873d f1bd ec31 f1bd 478c 06be
00000020: 8283 fc3d cfc6 0cbe e524 febd 6e75 e93d
00000030: 91b2 f43d 43a9 20be adc9 093e 40df 113e
0.14206412 0.14534205 0.14379539 -0.13822366 -0.16385387 -0.117793135 -0.117771 -0.13139449
0.123297706 -0.13747714 -0.12409381 0.11399351 0.11948121 -0.15689568 0.1345584 0.1424532

running_mean f4 [16]
00000000: 0bca 873e 7e1b 9d3e 44fc 913e be6e 803d
00000010: 1ce5 853d 04b5 773d a538 773d 9f3f 763d
00000020: 4552 a43e 1377 8a3d 77e5 823d af98 a43e
00000030: f9c6 913e cd10 933d f545 a13e 2dd4 a83e
0.26521334 0.30685037 0.28512776 0.062711224 0.0653784 0.060475364 0.060356755 0.060119268
0.32094017 0.06760993 0.06391423 0.32147738 0.28472117 0.07180939 0.31498685 0.32974377

running_var f4 [16]
00000000: fbf3 923e 78a2 c33e 7ca2 ac3e 6004 1c3e
00000010: 9a62 2b3e 7a34 193e 7267 223e 380f 213e
00000020: ddc3 a73e 6ca8 343e 167c 263e 394f a93e
00000030: 7cde 933e de04 453e cd93 9e3e 22c8 a73e
0.28701767 0.3820989 0.33717716 0.15236044 0.16736832 0.14961424 0.15859774 0.15728462
0.3276662 0.17642373 0.16258273 0.33068255 0.2888068 0.19240138 0.30972138 0.32769877

weight f4 [2, 16]
00000000: d323 c73e 50aa 8e3d 4184 b23e fd9c e8bd
00000010: e7d1 04bf a878 aabe e7da adbe 8a3e 8cbe
00000020: 7417 043e 2f09 01bf ae1d eabe 8c5b bd3e
00000030: 9b92 aa3e cab7 28be c534 6f3e a0dd 3bbc
00000040: 962f 7fbc 328b bbbe 0b71 95bd ed7d fc3e
00000050: cca1 473d 88a7 f83e 2405 f33e b4ac c43e
00000060: e493 c6be 439d c03d 0352 873e cd4c babe
00000070: 84a6 8dbe 3cd6 d53e 9b53 81be 9636 e3be
0.3889452 0.06966078 0.34866527 -0.11358068 -0.51882786 -0.33295178 -0.33956072 -0.27391464
0.12899572 -0.5040464 -0.4572577 0.36983907 0.33314976 -0.1647636 0.23359974 -0.011466414
-0.01557531 -0.36629635 -0.07296952 0.49314824 0.048738286 0.48565316 0.4746486 0.38413012
-0.38784707 0.09404995 0.26429757 -0.3638672 -0.27666104 0.4176501 -0.25259098 -0.44377583

bias f4 [2]
00000000: c17e e3bc b973 bbbd
-0.027770402 -0.09152932

exp_avg f4 [16, 4, 5, 5]
00000000: af62 5bba 97d3 21ba c8d5 27ba 77f3 1eba
00000010: a5f4 b8b9 9a4f 0fba 82c4 2aba f1d5 2aba
00000020: 1b66 40ba ddc3 4eba 2638 c8b9 1a23 0cba
00000030: d141 1dba e405 15ba 1055 bcb9 78c8 86ba
00000040: 30e1 38ba 3183 21ba cba9 2aba 4e64 0eba
00000050: 1470 a1ba fddc 2bba 7dae 00ba c772 35ba
00000060: b5f0 08ba b862 5bba 97d3 21ba c5d5 27ba
00000070: 74f3 1eba a5f4 b8b9 984f 0fba 7fc4 2aba
00000080: efd5 2aba 1d66 40ba d9c3 4eba 2638 c8b9
00000090: 1923 0cba d141 1dba ea05 15ba 0d55 bcb9
000000a0: 76c8 86ba 33e1 38ba 3783 21ba c7a9 2aba
000000b0: 4f64 0eba 1370 a1ba fbdc 2bba 7dae 00ba
000000c0: c772 35ba b5f0 08ba b462 5bba 9bd3 21ba
000000d0: c5d5 27ba 73f3 1eba abf4 b8b9 984f 0fba
000000e0: 85c4 2aba f0d5 2aba 2366 40ba dac3 4eba
000000f0: 2638 c8b9 1923 0cba d141 1dba e205 15ba
00000100: 1455 bcb9 74c8 86ba 31e1 38ba 2f83 21ba
00000110: cda9 2aba 4d64 0eba 1570 a1ba f8dc 2bba
00000120: 7dae 00ba c972 35ba b2f0 08ba dbfc 9dba
00000130: 7bf7 3cba a16c efb9 e8f5 63b9 179c 91ba
00000140: deec d2ba 461c 34ba e7c7 9c39 5ef1 47b9
00000150: 1a8a c939 def1 46bb 0589 6dba 6d63 343a
00000160: 472d 58ba 80a8 61ba c86e 4cbb 2890 1eba
00000170: 45c2 eb38 c74c b4b9 eec2 53ba 85ba 18bb
00000180: 1dea ffb9 c668 343a 13ec 793a 3863 1f3a
00000190: f06a 8d38 1a17 9838 8f0b e938 2839 6d38
000001a0: fd09 37b8 1955 dc38 5f98 ce38 9fbb c238
000001b0: 77f2 5e38 28d4 3eb6 f3c8 2739 3a73 bf38
000001c0: 54a3 5a38 bcd3 1538 6ac6 5d37 fc77 3639
000001d0: 1f25 0b39 2e25 9b38 fe0f 8938 6aca 0538
000001e0: 611e 3939 3314 d738 8ecb 7d38 b205 9938
000001f0: 505d 1338 f06a 8d38 0d17 9838 900b e938
00000200: 1839 6d38 030a 37b8 1655 dc38 6898 ce38
00000210: a5bb c238 75f2 5e38 88d5 3eb6 f4c8 2739
00000220: 3873 bf38 5aa3 5a38 bcd3 1538 6ac6 5d37
00000230: fb77 3639 1e25 0b39 3425 9b38 fe0f 8938
00000240: 6cca 0538 611e 3939 3414 d738 8ecb 7d38
00000250: bd05 9938 525d 1338 f26a 8d38 1517 9838
00000260: 8e0b e938 2539 6d38 f309 37b8 2655 dc38
00000270: 5a98 ce38 a8bb c238 75f2 5e38 15d5 3eb6
00000280: f4c8 2739 3c73 bf38 5aa3 5a38 b5d3 1538
00000290: 57c6 5d37 0378 3639 1f25 0b39 2b25 9b38
000002a0: 0110 8938 51ca 0538 5a1e 3939 2614 d738
000002b0: 91cb 7d38 c005 9938 725d 1338 d698 0f38
000002c0: a872 c4b8 becd 6db9 dfb6 84b9 1147 88b9
000002d0: a593 8037 3ea0 d837 9be9 edb7 5687 8ab8
000002e0: d283 5fb9 9819 5138 f8a2 9738 6f4e fc38
000002f0: dac0 72b6 4e2e 9bb9 193c 5439 2d5d 1b39
00000300: 2534 5e38 10ff 3136 ec99 4cb9 5707 5339
00000310: 608f 1a39 2703 9338 1202 8bb6 154b 80b9
00000320: 8308 833b 601f 713b 0c0f 643b c2f3 4c3b
00000330: c609 5f3b 2d8e 8c3b 36d5 833b d1d0 733b
00000340: aa17 543b 11bb 603b 0857 843b c3dc 843b
00000350: 69d0 6c3b f992 513b d554 583b c297 853b
00000360: 40d7 873b 4a78 733b 3101 633b decb 643b
00000370: 3178 8c3b 8b15 8d3b 0f89 833b bcd3 6d3b
00000380: 9571 5f3b 8308 833b 611f 713b 0c0f 643b
00000390: c3f3 4c3b c609 5f3b 2d8e 8c3b 37d5 833b
000003a0: d2d0 733b aa17 543b 11bb 603b 0857 843b
000003b0: c3dc 843b 69d0 6c3b f892 513b d554 583b
000003c0: c197 853b 40d7 873b 4a78 733b 3101 633b
000003d0: decb 643b 3178 8c3b 8c15 8d3b 0f89 833b
000003e0: bcd3 6d3b 9471 5f3b 8308 833b 601f 713b
000003f0: 0c0f 643b c3f3 4c3b c609 5f3b 2d8e 8c3b
-0.0008368892 -0.0006173192 -0.00064024003 -0.0006063501 -0.0003527749 -0.00054668786 -0.00065142673 -0.0006516865
-0.00073394337 -0.0007887462 -0.00038188807 -0.0005345807 -0.0005998882 -0.00056847767 -0.0003592153 -0.0010283133
-0.00070525985 -0.00061612116 -0.00065102865 -0.00054318167 -0.0012316727 -0.0006556062 -0.0004908813 -0.0006921705
-0.00052238564 -0.0008368897 -0.0006173192 -0.00064023986 -0.0006063499 -0.0003527749 -0.00054668775 -0.00065142656
-0.0006516864 -0.0007339435 -0.000788746 -0.00038188807 -0.0005345806 -0.0005998882 -0.000568478 -0.00035921522
-0.0010283131 -0.00070526 -0.0006161215 -0.0006510284 -0.0005431817 -0.0012316726 -0.0006556061 -0.0004908813
-0.0006921705 -0.00052238564 -0.0008368895 -0.0006173194 -0.00064023986 -0.00060634984 -0.00035277507 -0.00054668775
-0.0006514269 -0.00065168645 -0.00073394383 -0.00078874605 -0.00038188807 -0.0005345806 -0.0005998882 -0.00056847755
-0.00035921542 -0.0010283128 -0.0007052599 -0.00061612105 -0.00065102876 -0.0005431816 -0.0012316728 -0.0006556059
-0.0004908813 -0.00069217064 -0.00052238547 -0.0012053506 -0.00072085083 -0.00045666567 -0.00021740014 -0.001110914
-0.001609232 -0.0006870668 0.00029903578 -0.00019068035 0.000384406 -0.0030356566 -0.000906125 0.00068812707
-0.0008246493 -0.00086081773 -0.003119396 -0.00060487026 0.00011241859 -0.0003438948 -0.0008078058 -0.0023304534
-0.00048811818 0.00068820675 0.0009533774 0.00060801534 6.7433226e-05 7.252228e-05 0.00011112459 5.6558434e-05
-4.3639902e-05 0.00010506268 9.851227e-05 9.285588e-05 5.3154738e-05 -2.8435697e-06 0.0001600122 9.129052e-05
5.212736e-05 3.572156e-05 1.3218823e-05 0.0001740157 0.00013269902 7.397901e-05 6.535648e-05 3.1898184e-05
0.00017654292 0.00010255761 6.0509476e-05 7.296669e-05 3.5134435e-05 6.7433226e-05 7.252218e-05 0.000111124595
5.6558376e-05 -4.3639924e-05 0.00010506266 9.851233e-05 9.2855924e-05 5.315473e-05 -2.8436498e-06 0.00016001222
9.129051e-05 5.2127383e-05 3.572156e-05 1.3218823e-05 0.00017401569 0.000132699 7.3979056e-05 6.535648e-05
3.189819e-05 0.00017654292 0.00010255762 6.0509476e-05 7.296677e-05 3.5134442e-05 6.743324e-05 7.252224e-05
0.00011112458 5.6558423e-05 -4.3639866e-05 0.000105062776 9.851223e-05 9.2855946e-05 5.315473e-05 -2.8436236e-06
0.00016001222 9.129054e-05 5.2127383e-05 3.5721536e-05 1.3218806e-05 0.0001740158 0.00013269902 7.397899e-05
6.53565e-05 3.1898093e-05 0.00017654282 0.00010255752 6.0509487e-05 7.2966795e-05 3.513456e-05 3.4236196e-05
-9.367365e-05 -0.00022678726 -0.00025313252 -0.0002599289 1.5327541e-05 2.5823825e-05 -2.8361383e-05 -6.605561e-05
-0.00021316044 4.985332e-05 7.2305964e-05 0.00012030906 -3.6173064e-06 -0.00029598403 0.00020240284 0.00014816663
5.2977488e-05 2.6523521e-06 -0.00019512296 0.00020125262 0.00014739996 7.0100934e-05 -4.142764e-06 -0.00024470003
0.0039988174 0.0036792383 0.0034799008 0.003127322 0.0034032925 0.0042894096 0.0040232195 0.0037203322
0.0032362738 0.0034291188 0.0040386952 0.004054637 0.0036134964 0.0031978472 0.0033009548 0.004076929
0.004145533 0.0037150555 0.0034638161 0.0034911553 0.004286789 0.0043055466 0.0040141414 0.0036289534
0.00340948 0.0039988174 0.0036792385 0.0034799008 0.0031273223 0.0034032925 0.0042894096 0.00402322
0.0037203324 0.0032362738 0.0034291188 0.0040386952 0.004054637 0.0036134964 0.003197847 0.0033009548
0.0040769284 0.004145533 0.0037150555 0.0034638161 0.0034911553 0.004286789 0.004305547 0.0040141414
0.0036289534 0.0034094797 0.0039988174 0.0036792383 0.0034799008 0.0031273223 0.0034032925 0.0042894096

exp_avg_sq f4 [16, 4, 5, 5]
00000000: 1ea6 9838 7c59 9c38 7f18 9538 9ac2 9638
00000010: 230b 9738 9a8c 8838 41e3 8838 4463 8a38
00000020: c3b7 8d38 bfb1 8a38 a381 8038 d41e 7e38
00000030: 324e 8838 32cf 8838 18da 7e38 c679 7f38
00000040: 848a 7538 456d 7738 66eb 7c38 be53 7b38
00000050: de25 8538 0c80 7238 3743 6838 35b0 7d38
00000060: 490c 7e38 1ea6 9838 7d59 9c38 7f18 9538
00000070: 9ac2 9638 220b 9738 9a8c 8838 41e3 8838
00000080: 4463 8a38 c3b7 8d38 bfb1 8a38 a481 8038
00000090: d41e 7e38 334e 8838 32cf 8838 18da 7e38
000000a0: c679 7f38 858a 7538 456d 7738 66eb 7c38
000000b0: be53 7b38 dd25 8538 0c80 7238 3843 6838
000000c0: 35b0 7d38 490c 7e38 1ea6 9838 7c59 9c38
000000d0: 7f18 9538 9ac2 9638 230b 9738 9a8c 8838
000000e0: 41e3 8838 4463 8a38 c3b7 8d38 bfb1 8a38
000000f0: a381 8038 d41e 7e38 334e 8838 32cf 8838
00000100: 17da 7e38 c679 7f38 858a 7538 456d 7738
00000110: 66eb 7c38 be53 7b38 df25 8538 0c80 7238
00000120: 3843 6838 34b0 7d38 490c 7e38 c02b 7839
00000130: 515c 6e39 0ad2 6a39 dd36 7339 022c 7939
00000140: b5fb 7839 514b 7339 1200 7639 1c10 8539
00000150: 0bae 9039 aecf 9239 6a5d 8a39 954d 8e39
00000160: ebba 9839 7c70 9d39 5f3f b339 776b a539
00000170: 5b9c a039 9573 ab39 ea8f b639 88e5 be39
00000180: 2bea bd39 3f6e cf39 79f9 c939 61cf cb39
00000190: ba7e 2735 d98d f434 0ae7 b934 542f 9834
000001a0: 91bc 8c34 c487 1435 7d11 e734 3946 ab34
000001b0: a672 7a34 5bf6 5d34 0821 0a35 8a27 c534
000001c0: dda6 8534 2613 4b34 9ec6 1834 2363 0b35
000001d0: 1b01 d834 f391 8e34 85cc 6934 2ba7 3f34
000001e0: a529 2235 b0b7 f634 d15e b134 ef00 7334
000001f0: 7742 4334 bc7e 2735 dd8d f434 0ae7 b934
00000200: 552f 9834 91bc 8c34 c487 1435 7c11 e734
00000210: 3b46 ab34 a772 7a34 5af6 5d34 0821 0a35
00000220: 8827 c534 dda6 8534 2813 4b34 9fc6 1834
00000230: 2363 0b35 1b01 d834 f391 8e34 85cc 6934
00000240: 2aa7 3f34 a529 2235 b1b7 f634 d15e b134
00000250: ef00 7334 7742 4334 bd7e 2735 da8d f434
00000260: 0ae7 b934 542f 9834 91bc 8c34 c387 1435
00000270: 7c11 e734 3946 ab34 a772 7a34 5bf6 5d34
00000280: 0821 0a35 8927 c534 dda6 8534 2613 4b34
00000290: 9dc6 1834 2363 0b35 1a01 d834 f391 8e34
000002a0: 86cc 6934 28a7 3f34 a629 2235 b0b7 f634
000002b0: d05e b134 f100 7334 7842 4334 38e1 2236
000002c0: 0384 2036 8b67 1d36 258b 0836 ea20 0236
000002d0: 98af 2b36 7548 2736 d4f6 1536 5123 0e36
000002e0: ee7c 0c36 862d 3b36 6f14 2a36 3900 2036
000002f0: 1077 1636 58e7 1b36 68f2 2c36 171b 2e36
00000300: 7b43 2e36 64c3 3036 9e45 4936 bc2f 4236
00000310: 65e3 5436 ca11 4b36 e178 6936 2965 6236
00000320: b1a8 5838 6072 5638 ad9d 5638 cf88 5238
00000330: 6f06 5838 cdf2 5738 c0f6 5938 55f4 5638
00000340: ddbf 5538 b581 5a38 712b 5738 6776 5838
00000350: b88b 5838 c10d 5838 8b70 5a38 3e2a 5538
00000360: cca8 5438 eec2 5738 517d 5738 823a 5d38
00000370: ba1a 5438 821d 5438 a126 5a38 fe1f 5b38
00000380: 9233 6038 b0a8 5838 6072 5638 ac9d 5638
00000390: cf88 5238 6f06 5838 cdf2 5738 c0f6 5938
000003a0: 55f4 5638 ddbf 5538 b581 5a38 712b 5738
000003b0: 6776 5838 b88b 5838 c10d 5838 8b70 5a38
000003c0: 3e2a 5538 cda8 5438 efc2 5738 517d 5738
000003d0: 823a 5d38 ba1a 5438 821d 5438 a126 5a38
000003e0: fe1f 5b38 9133 6038 b0a8 5838 6072 5638
000003f0: ac9d 5638 cf88 5238 6f06 5838 cdf2 5738
7.2788665e-05 7.4553274e-05 7.1094364e-05 7.188805e-05 7.2023155e-05 6.5111744e-05 6.527315e-05 6.5988424e-05
6.757632e-05 6.6134606e-05 6.127662e-05 6.058703e-05 6.49955e-05 6.5235785e-05 6.0761435e-05 6.0910148e-05
5.8541555e-05 5.8991154e-05 6.0300714e-05 5.9921054e-05 6.3489875e-05 5.781655e-05 5.537571e-05 6.0484006e-05
6.056976e-05 7.2788665e-05 7.455328e-05 7.1094364e-05 7.188805e-05 7.202315e-05 6.5111744e-05 6.527315e-05
6.5988424e-05 6.757632e-05 6.6134606e-05 6.127663e-05 6.058703e-05 6.499551e-05 6.5235785e-05 6.0761435e-05
6.0910148e-05 5.854156e-05 5.8991154e-05 6.0300714e-05 5.9921054e-05 6.348987e-05 5.781655e-05 5.5375713e-05
6.0484006e-05 6.056976e-05 7.2788665e-05 7.4553274e-05 7.1094364e-05 7.188805e-05 7.2023155e-05 6.5111744e-05
6.527315e-05 6.5988424e-05 6.757632e-05 6.6134606e-05 6.127662e-05 6.058703e-05 6.499551e-05 6.5235785e-05
6.076143e-05 6.0910148e-05 5.854156e-05 5.8991154e-05 6.0300714e-05 5.9921054e-05 6.348988e-05 5.781655e-05
5.5375713e-05 6.0484002e-05 6.056976e-05 0.00023667421 0.00022731839 0.00022394225 0.00023194724 0.00023762885
0.00023744891 0.00023202343 0.00023460414 0.0002537974 0.00027595492 0.00028002023 0.0002639101 0.00027142154
0.00029130964 0.0003002918 0.00034188756 0.0003155132 0.00030634072 0.00032701777 0.0003482097 0.00036410638
0.00036223358 0.00039564256 0.0003852358 0.00038873687 6.239676e-07 4.555175e-07 3.4627038e-07 2.8346642e-07
2.6214232e-07 5.533186e-07 4.3039827e-07 3.1902326e-07 2.3324773e-07 2.0671852e-07 5.1457073e-07 3.6722878e-07
2.489459e-07 1.8912814e-07 1.422836e-07 5.19258e-07 4.023394e-07 2.6555753e-07 2.177422e-07 1.7849077e-07
6.0410304e-07 4.595472e-07 3.3037807e-07 2.2631478e-07 1.818497e-07 6.239677e-07 4.555176e-07 3.4627038e-07
2.8346645e-07 2.6214232e-07 5.533186e-07 4.3039825e-07 3.1902331e-07 2.3324775e-07 2.0671851e-07 5.1457073e-07
3.6722872e-07 2.489459e-07 1.8912817e-07 1.4228361e-07 5.19258e-07 4.023394e-07 2.6555753e-07 2.177422e-07
1.7849075e-07 6.0410304e-07 4.5954724e-07 3.3037807e-07 2.2631478e-07 1.818497e-07 6.2396776e-07 4.5551752e-07
3.4627038e-07 2.8346642e-07 2.6214232e-07 5.5331856e-07 4.3039825e-07 3.1902326e-07 2.3324775e-07 2.0671852e-07
5.1457073e-07 3.6722875e-07 2.489459e-07 1.8912814e-07 1.4228358e-07 5.19258e-07 4.0233937e-07 2.6555753e-07
2.1774221e-07 1.7849072e-07 6.041031e-07 4.595472e-07 3.3037804e-07 2.2631481e-07 1.8184971e-07 2.4270976e-06
2.3918699e-06 2.3455093e-06 2.0346572e-06 1.9390668e-06 2.5583195e-06 2.4927115e-06 2.2346403e-06 2.1180206e-06
2.0934344e-06 2.789167e-06 2.5343868e-06 2.3841988e-06 2.2421045e-06 2.323146e-06 2.5771096e-06 2.5943789e-06
2.59673e-06 2.6339776e-06 2.9991857e-06 2.8936038e-06 3.1722823e-06 3.0259712e-06 3.4790066e-06 3.3735507e-06
5.165552e-05 5.1128096e-05 5.1168423e-05 5.0195315e-05 5.1504405e-05 5.148612e-05 5.1966636e-05 5.1249128e-05
5.0961844e-05 5.209605e-05 5.1300452e-05 5.1608684e-05 5.1628536e-05 5.1511222e-05 5.2080064e-05 5.08225e-05
5.0701943e-05 5.1441537e-05 5.1376705e-05 5.2744996e-05 5.056963e-05 5.057222e-05 5.2011226e-05 5.2243464e-05
5.345379e-05 5.1655516e-05 5.1128096e-05 5.116842e-05 5.0195315e-05 5.1504405e-05 5.148612e-05 5.1966636e-05
5.1249128e-05 5.0961844e-05 5.209605e-05 5.1300452e-05 5.1608684e-05 5.1628536e-05 5.1511222e-05 5.2080064e-05
5.08225e-05 5.0701947e-05 5.144154e-05 5.1376705e-05 5.2744996e-05 5.056963e-05 5.057222e-05 5.2011226e-05
5.2243464e-05 5.3453787e-05 5.1655516e-05 5.1128096e-05 5.116842e-05 5.0195315e-05 5.1504405e-05 5.148612e-05

exp_avg f4 [16]
00000000: 3eef 15bc fc1c 2d39 7278 bb3b 4453 b139
00000010: 4882 2db8 81cc 393b d8cb e13a 6c08 8fba
00000020: 74d5 193b 5b3c 52b8 8edd cabb 0d87 e3bb
00000030: ed2f 09bb a4f8 a537 7e5f e53a 0520 9f38
-0.009151278 0.00016509363 0.0057211453 0.00033822109 -4.1367748e-05 0.0028350654 0.0017226888 -0.0010912544
0.0023473175 -5.0124112e-05 -0.006190962 -0.0069435895 -0.0020933107 1.9785315e-05 0.0017499772 7.587675e-05

exp_avg_sq f4 [16]
00000000: b79a 053b 53aa 1835 4da7 be38 b511 3a37
00000010: 1f77 bc34 b5ca 893a adaf c939 47ac bd38
00000020: 4e2b 6a3a e0bd dc37 da62 a139 a417 9039
00000030: bf7b 2639 a22d 8c32 41fc ce3c 98dc 3238
0.0020386407 5.6872267e-07 9.091068e-05 1.1090587e-05 3.51044e-07 0.0010512682 0.00038468596 9.0443114e-05
0.00089328445 2.6314461e-05 0.00030781963 0.00027483434 0.00015877093 1.6318896e-08 0.025266768 4.264395e-05

exp_avg f4 [16]
00000000: 2027 9eb7 f9ec 26ba 9c43 9fb6 6c5b a538
00000010: 569c 95ba b2d2 d0b9 de5a 0f38 1373 943a
00000020: ebfb 8ab9 79c4 06ba f332 b5b9 a731 fcb9
00000030: 4297 ab39 9fca 633a 0743 af3a 2728 8639
-1.8853287e-05 -0.0006367709 -4.74644e-06 7.884842e-05 -0.001141439 -0.00039829832 3.4178483e-05 0.0011325799
-0.00026509105 -0.0005140971 -0.0003456097 -0.0004810218 0.00032728357 0.00086895557 0.0013371416 0.00025588388

exp_avg_sq f4 [16]
00000000: f3f8 b737 72c3 8736 b5ca 3a38 b645 4d36
00000010: 1b21 c537 5968 7137 8d1c 1437 2782 8a38
00000020: 2009 e137 4c09 9536 9e68 8f36 754e b737
00000030: e518 c836 8915 8236 a52f 6237 23f7 8836
2.1931226e-05 4.0460664e-06 4.453464e-05 3.0587958e-06 2.3499646e-05 1.4389015e-05 8.828135e-06 6.6045955e-05
2.682634e-05 4.4416283e-06 4.273911e-06 2.1851834e-05 5.9633626e-06 3.876809e-06 1.3481743e-05 4.0818863e-06

exp_avg f4 [16]
00000000: f255 84b9 293e e0b9 dd5e aab9 5784 2d3a
00000010: 332d 0d3a 0c52 8eba cb5b 0cba 442d a13a
00000020: 1072 40b8 657a 8c38 dbd1 dcb8 c96f 3235
00000030: 3058 b9b9 a2b8 c2b8 a47c ffb9 0560 3239
-0.00025241036 -0.00042770922 -0.00032495605 0.00066191464 0.00053854584 -0.0010858192 -0.00053542544 0.0012296815
-4.5882596e-05 6.698518e-05 -0.00010529506 6.6472836e-07 -0.00035351655 -9.2850314e-05 -0.00048730255 0.00017011173

exp_avg_sq f4 [16]
00000000: af55 0637 5d0b 6736 28f7 9b36 deea 9a36
00000010: 9596 1337 5cc4 3937 c0f2 2c37 bcc4 4437
00000020: c889 b636 8ab4 1737 9bb0 8236 ed06 ef35
00000030: 249d f136 7c06 6f36 2981 c337 4dbf 8136
8.006972e-06 3.4428297e-06 4.6481327e-06 4.6169e-06 8.796943e-06 1.1072578e-05 1.03085185e-05 1.1728316e-05
5.4400625e-06 9.042336e-06 3.8948615e-06 1.7808903e-06 7.2006533e-06 3.561755e-06 2.3305956e-05 3.86677e-06
